data/modelo_acessibilidade.pt (torch, 178897 bytes, 7 tensors)

fc1.weight f4 [256, 9]
0	0x3c191387	0.009343035
1	0xbe974c40	-0.29550362
2	0xbd526f21	-0.051375512
3	0x3dd9bb35	0.1063141
4	0xbe920d94	-0.28525984
5	0xbd448366	-0.047976874
6	0x3e5cc68e	0.21560118
7	0x3e78ca6f	0.24295972
8	0xbe8d4e58	-0.27598834
9	0xbe3eecac	-0.1864497
10	0xbe68da46	-0.22739515
11	0x3da68bbf	0.08132123
12	0xbe84f7ed	-0.25970402
13	0x3e34f5a0	0.17671824
14	0xbe9b1a6b	-0.30293593
15	0x3ddeda6d	0.10881505
16	0xbe4e70c9	-0.20160212
17	0xbde5081c	-0.11183187
18	0x3e8c485a	0.2739895
19	0x3e5be799	0.21475066
20	0x3e397c6c	0.1811387
21	0x3c3b2963	0.011423442
22	0xbe84da5d	-0.25947848
23	0xbe2fee8b	-0.1718084
24	0xbea37408	-0.31924462
25	0x3d030f67	0.03199711
26	0xbda8b615	-0.082378544
27	0x3e6ea18f	0.23303817
28	0xbe2322c0	-0.15931225
29	0x3d93dcbc	0.07219836
30	0xbe74afcc	-0.23895186
31	0x3e0c9328	0.1372801
32	0xbe9def86	-0.30846804
33	0xbd2566b2	-0.04038114
34	0x3e85ead2	0.26155716
35	0xbd04fa98	-0.032465547
36	0x3e9c3f8a	0.30517226
37	0xbe2a8acc	-0.1665451
38	0xbe98a0d8	-0.29810214
39	0x3e6e5dde	0.23277995
40	0xbe02756e	-0.12740108
41	0xbe9ace03	-0.302353
42	0x3ea1eb01	0.31624606
43	0x3e6d313d	0.23163314
44	0x3c6722d0	0.014107421
45	0x3d6caed2	0.05778391
46	0xbd45d398	-0.048297495
47	0xbdaaf4f5	-0.08347503
48	0x3bf7a87b	0.0075579262
49	0x3e2b9d70	0.16759276
50	0xbd920175	-0.07129184
51	0xbd04f548	-0.03246048
52	0x3e3762e0	0.17908812
53	0xbd2ce682	-0.042212017
54	0x3db4786f	0.088120334
55	0xbe8e016e	-0.27735466
56	0xbe144c71	-0.14482285
57	0x3d51527b	0.05110405
58	0xbe82e97b	-0.25568756
59	0x3d2856e2	0.041098483
60	0xbdba6124	-0.09100559
61	0xbdc355a1	-0.09537817
62	0x3d9c3a04	0.07628253
63	0xbef76dc8	-0.48325944
64	0xbe077bec	-0.13230866
65	0xbdd41a64	-0.10356596
66	0x3dffc171	0.12488068
67	0x3da044dc	0.07825634
68	0x3e00f659	0.12593974
69	0xbddf2935	-0.108965315
70	0x3dfaf22a	0.122532204
71	0x3e4c62d4	0.19959575
72	0x3e771e79	0.24132718
73	0x3ca4c60d	0.02011397
74	0xbe6fffb5	-0.23437388
75	0x3ddda252	0.10821976
76	0x3c1d14e2	0.009587498
77	0xbe3351cb	-0.1751167
78	0xbdf4e643	-0.119579814
79	0x3bb58eb9	0.0055406955
80	0x3e1105a8	0.14162314
81	0x3d35f5d2	0.044423886
82	0xbd599cf9	-0.053128216
83	0xbe554fba	-0.20831195
84	0xbe9404b5	-0.2890984
85	0xbdb2d284	-0.08731559
86	0x3c098047	0.0083924
87	0xbe083bd3	-0.13304071
88	0x3e0fb460	0.14033651
89	0xbdd0bd63	-0.10192373
90	0xbdca6e99	-0.09884376
91	0xbe8a8ed3	-0.2706209
92	0xbe9549d5	-0.29157892
93	0xbe3b8222	-0.1831136
94	0xbe88568b	-0.26628527
95	0x3e96d5e8	0.29460073
96	0x3e76d261	0.2410369
97	0xbe8700a5	-0.2636768
98	0xbe95519a	-0.2916382
99	0x3de50ac4	0.11183694
100	0x3e16bd1c	0.14720577
101	0xbe3875b0	-0.18013644
102	0x3da51052	0.080597535
103	0xbda493fc	-0.08036038
104	0x3dcf3a77	0.10118573
105	0xbe925da8	-0.2858708
106	0xbdd22fee	-0.10263048
107	0x3e1753a9	0.14778008
108	0x3e266320	0.1624875
109	0xbe116c66	-0.14201507
110	0xbe719cf0	-0.23595023
111	0x3e0d5ef8	0.13805759
112	0xbe59e6f0	-0.21279502
113	0xbdd6a270	-0.10480201
114	0x3d0e60da	0.034760334
115	0x3dbe79ef	0.09300601
116	0x3cab410c	0.02090504
117	0xbddff7a1	-0.10935903
118	0x3e3d117f	0.18463705
119	0x3e3087ad	0.17239256
120	0xbd513523	-0.051076066
121	0x3e9618c4	0.2931577
122	0x3d4fa5eb	0.05069534
123	0x3d72b952	0.059258766
124	0xbd0b7ad6	-0.034052692
125	0xbdd98339	-0.10620732
126	0x3e769b41	0.24082662
127	0x3dcd0822	0.10011317
128	0x3ddd31c2	0.10800506
129	0x3d38c25c	0.04510723
130	0xbc9bd09c	-0.019020371
131	0xbe74082a	-0.2383124
132	0xbe28ba4f	-0.16477321
133	0xbdfd3cf4	-0.123651415
134	0x3e106617	0.14101444
135	0x3e714149	0.2356006
136	0x3e0d6dd2	0.13811424
137	0x3e84b9af	0.25922915
138	0x3d750700	0.05982113
139	0xbe6828c0	-0.22671795
140	0x3cf35dec	0.029707871
141	0xbdf19398	-0.117957294
142	0x3c5c0db4	0.013431001
143	0xbe5145b1	-0.20436741
144	0xbdf98759	-0.12184019
145	0x3e8be3b4	0.2732216
146	0x3e8c6b2a	0.2742551
147	0xbe8cc12a	-0.27491122
148	0xbe0ece94	-0.13945991
149	0x3e470f25	0.19439371
150	0x3e05b637	0.1305779
151	0x3e93d239	0.28871325
152	0x3deac54c	0.11463413
153	0xbe8014c1	-0.25015834
154	0x3e8bb10e	0.2728352
155	0x3e910930	0.28327322
156	0x3c754e5e	0.0149722975
157	0x3d59e94d	0.05320101
158	0xbe64865e	-0.22316882
159	0x3e914d83	0.2837945
160	0xbe89b13f	-0.2689304
161	0xbe59b37e	-0.21259877
162	0xbe8d9de1	-0.27659515
163	0xbe96cf78	-0.2945516
164	0x3e0c2299	0.13685073
165	0xbe0d2404	-0.1378327
166	0x3d05cae8	0.03266421
167	0x3d13da3a	0.03609679
168	0x3e0c5fce	0.13708422
169	0xbd1f85f3	-0.038946103
170	0x3d0825ef	0.0332393
171	0xbdda61ec	-0.10663208
172	0x3dcca213	0.09991851
173	0x3ddb8c28	0.10720092
174	0x3e990bdd	0.29891863
175	0x3e5b1eef	0.21398519
176	0x3d9214db	0.07132884
177	0x3dca1576	0.098673746
178	0x3e4e7e4a	0.20165363
179	0x3e863033	0.26208648
180	0x3e238628	0.15969145
181	0xba3f1db0	-0.00072904956
182	0xbe6d92a0	-0.23200464
183	0xbdda929d	-0.106724955
184	0x3e9510a5	0.2911426
185	0x3e385306	0.18000421
186	0xbe969f3c	-0.2941836
187	0x3db0de1f	0.08636116
188	0xbb1b6127	-0.002370903
189	0x3e8c678d	0.27422753
190	0xbc5fcd91	-0.013659851
191	0x3e34fe0c	0.17675036
192	0xbe30834b	-0.17237584
193	0xbe927c76	-0.2861058
194	0x3e6ea4bd	0.2330503
195	0xbe046179	-0.12927808
196	0x3e9c9c95	0.30588213
197	0x3e61133c	0.21979994
198	0xbe92dfb6	-0.28686303
199	0xbe1d75ce	-0.1537697
200	0xbde5913d	-0.11209343
201	0xbada0ef6	-0.0016636539
202	0xbd4b9c27	-0.049709465
203	0xbe3b78b3	-0.18307762
204	0xbe499582	-0.19685939
205	0xbe613277	-0.21991907
206	0xbd65aedb	-0.05607496
207	0xbeaceab8	-0.33772826
208	0xbe8200fa	-0.2539137
209	0x3e534fd5	0.20635922
210	0x3df9a0ab	0.12188848
211	0xbde94bc0	-0.11391401
212	0x3d5ea0b8	0.054352492
213	0xbd611d5a	-0.054959632
214	0x3dc53e4d	0.096310236
215	0xbe7e3ade	-0.24827144
216	0x3d347ed6	0.044066273
217	0x3e3d100f	0.18463157
218	0x3e32e460	0.1746993
219	0x3deef708	0.11668211
220	0xbe2a420f	-0.16626762
221	0xbd2017bc	-0.039085135
222	0xbd66b57b	-0.056325417
223	0x3d194d94	0.0374275
224	0x3ca6560d	0.020304704
225	0xbdfb3c88	-0.12267405
226	0xbe07fdc8	-0.13280404
227	0xbb52914f	-0.0032130068
228	0x3e92593d	0.28583708
229	0xbd5e516f	-0.05427688
230	0xbe81c987	-0.25349066
231	0xbdda44f7	-0.10657685
232	0xbea44503	-0.32083902
233	0x3e159c08	0.14610302
234	0x3daca348	0.08429581
235	0x3e8d1260	0.27553082
236	0xbe451aa5	-0.19248445
237	0x3e5d4bdb	0.21610968
238	0xbd4f475d	-0.050605167
239	0xbdbc0c43	-0.09182026
240	0x3e8532ac	0.26015222
241	0xbe001b5e	-0.1251044
242	0x3e89edcd	0.2693924
243	0x3ebca1e9	0.36842278
244	0x3d137195	0.035996992
245	0x3c8cf4a4	0.017206497
246	0x3b8af9a2	0.0042411843
247	0x3df816fe	0.121137604
248	0xbd6f6f00	-0.058455467
249	0xbe8c943f	-0.27456853
250	0x3c96f8f3	0.018429255
251	0x3dd9024b	0.105961405
252	0xbe5c5c48	-0.21519578
253	0x3df6c7bd	0.12049816
254	0x3e3ff4d7	0.18745743
255	0x3e14f1b5	0.14545329

fc1.bias f4 [256]
0	0x3e00dd8e	0.12584516
1	0x3b294b4f	0.002583224
2	0xbea90918	-0.3301475
3	0xbe8749cd	-0.26423493
4	0xbe2db016	-0.16961703
5	0x3e40c26e	0.18824169
6	0x3e533fe7	0.20629846
7	0xbe288952	-0.16458634
8	0xbe264ff1	-0.16241433
9	0x3d53ca0c	0.05170636
10	0xbbe6eb86	-0.0070471196
11	0x3cd43ca1	0.025907816
12	0x3dbb942e	0.091591224
13	0xbdb907ca	-0.09034689
14	0xbe534ad8	-0.2063402
15	0xbe1784ad	-0.14796706
16	0xbe356c32	-0.17717054
17	0x3d9a0eda	0.07522364
18	0xbeb95dc8	-0.36204362
19	0x3ca332e0	0.01992172
20	0xbdd32feb	-0.10311874
21	0x3e97db02	0.29659277
22	0xbeac2a67	-0.336261
23	0xbe49e3c4	-0.19715792
24	0x3c45467b	0.01204073
25	0x3db4bf82	0.0882559
26	0x3e6d13e3	0.23152117
27	0x3e247460	0.16060019
28	0x3e8c43a8	0.27395368
29	0x3dd5578a	0.104170874
30	0x3e92ea9b	0.28694615
31	0x3dddcd5f	0.10830187
32	0xbc7b1c22	-0.015326532
33	0xbe2eba64	-0.1706329
34	0xbc2e7a06	-0.01064921
35	0x3e8273b9	0.25478914
36	0x3e4081c1	0.18799497
37	0xbe8f3453	-0.27969608
38	0x3e3d9200	0.18512726
39	0x3d9c8e97	0.07644384
40	0xbe88ef01	-0.26744846
41	0x3e582494	0.21107703
42	0x3c979f74	0.01850865
43	0xbe8ff58f	-0.28117034
44	0xbe3f0283	-0.18653302
45	0xbe98203e	-0.297121
46	0x3d8ce9cb	0.0688053
47	0x3e0bf23b	0.13666622
48	0x3ceb7cd4	0.028746046
49	0x3b82d1c7	0.0039922926
50	0xbea26706	-0.31719226
51	0xbe15181e	-0.14559981
52	0xbe830c44	-0.25595295
53	0xbe81ae7e	-0.2532844
54	0xbe363381	-0.17793085
55	0x3e84ce44	0.25938618
56	0x3ca7154c	0.020395897
57	0x3e8c6d71	0.27427247
58	0xbe50d30e	-0.20393011
59	0xbe0b99f2	-0.13632944
60	0x3ca1c1aa	0.019745667
61	0xbe8c3a66	-0.27388304
62	0x3e382d72	0.17986086
63	0x3e4e10f8	0.2012366
64	0x3e37e508	0.17958462
65	0xbe868519	-0.2627342
66	0x3e8c5188	0.27405953
67	0x3e62ca27	0.22147427
68	0xbe9d7b38	-0.3075807
69	0x3dbd4727	0.09242087
70	0x3e53b3cd	0.20674057
71	0x3d69cd51	0.05708057
72	0xbe19a4e6	-0.1500431
73	0x3da7ce0d	0.08193598
74	0x3e9a87f7	0.30181858
75	0xbe89121e	-0.26771635
76	0xbd0b67a1	-0.034034375
77	0xbc37b798	-0.011213206
78	0xbdebea67	-0.11519318
79	0x3c5a5fbe	0.013328491
80	0x3e9bc3fe	0.30422968
81	0x3e4735ac	0.19454068
82	0xbb34c3df	-0.0027582569
83	0xbe2185bf	-0.15773676
84	0x3e481661	0.19539787
85	0xbe11cda2	-0.14238599
86	0x3db0e6fe	0.08637808
87	0x3e7a0b62	0.24418405
88	0xbe4e88d4	-0.20169383
89	0x3e00a254	0.12561923
90	0x3df168da	0.11787577
91	0xbcb9712a	-0.022636969
92	0x3d88b227	0.06674605
93	0x3e30b4ac	0.17256421
94	0xbd8a80b6	-0.06762831
95	0xbe0f3a5c	-0.13987106
96	0xbe6a41d9	-0.22876681
97	0x3bf0f212	0.007353076
98	0xbe9a2f7d	-0.30114356
99	0xbe848637	-0.25883648
100	0x3e031be5	0.1280361
101	0xbe982c89	-0.29721478
102	0xbe82a167	-0.25513765
103	0x3d8e99b1	0.06962908
104	0x3d4be8b3	0.049782466
105	0x3e7e0e87	0.24810229
106	0x3e19a7e6	0.15005454
107	0xbc811cd2	-0.015760813
108	0x3e2662e4	0.16248661
109	0x3e970fc2	0.2950421
110	0x3e89444f	0.26809928
111	0x3e7599fd	0.23984523
112	0x3e2a1a25	0.16611536
113	0x3e820cd0	0.254004
114	0xbe7a4241	-0.24439336
115	0xbdd32507	-0.10309797
116	0xbded9f1e	-0.11602615
117	0xbdc2a4c3	-0.09504082
118	0xbe2343f6	-0.15943894
119	0x3e7728b5	0.24136622
120	0x3dfefabf	0.1245017
121	0x3e748a72	0.23880938
122	0xbe200c1c	-0.1562962
123	0xbe6e0006	-0.23242196
124	0xbe767db0	-0.24071383
125	0xbd28f8a8	-0.041252762
126	0x3c8942f5	0.01675556
127	0x3e5400f9	0.20703496
128	0x3e65733c	0.2240724
129	0x3e1840f1	0.14868523
130	0x3c11506a	0.00886927
131	0xbe3f976e	-0.1871011
132	0xbe82bd5f	-0.25535104
133	0xbe9a896d	-0.30182973
134	0x3dfdbbe9	0.12389357
135	0x3d2646ef	0.04059499
136	0xbd139e7a	-0.036039807
137	0x3de92dd4	0.11385694
138	0x3de3bd75	0.111201204
139	0xbe7f5438	-0.2493447
140	0x3ea4e602	0.32206732
141	0x3e81c53d	0.25345793
142	0x3e13c052	0.14428833
143	0x3e990bc6	0.29891795
144	0xbe52072f	-0.20510553
145	0x3e4f5f02	0.20251086
146	0x3dc55db3	0.09637012
147	0x3cfa0d61	0.030523958
148	0x3e784c83	0.24247937
149	0x3e2eb1c2	0.17059997
150	0x3e481208	0.19538128
151	0xbe968548	-0.2939856
152	0x3d31703f	0.043319937
153	0x3dad47ef	0.08460986
154	0x3e7f0894	0.24905616
155	0x3e19d4c9	0.15022577
156	0xbe152c6c	-0.14567727
157	0xbeafa9d6	-0.34309262
158	0x3e238789	0.15969671
159	0x3dac77d9	0.084212966
160	0xbe00c56a	-0.12575307
161	0xbea17103	-0.31531534
162	0xbd3ab36c	-0.045581266
163	0xbcc1db2e	-0.023664083
164	0x3e531fde	0.20617625
165	0x3df04a88	0.11732966
166	0x3e3710d1	0.17877509
167	0xbe4ea0f7	-0.2017859
168	0x3ea74d2d	0.32676068
169	0x3e840816	0.2578742
170	0xbe4e83b4	-0.20167428
171	0xbea616e7	-0.32439348
172	0xbe25b434	-0.16182023
173	0x3e52799b	0.20554201
174	0xbe5d3ed8	-0.21606004
175	0x3dbbb2d8	0.09164971
176	0xbe4ee394	-0.20204002
177	0x3e977246	0.2957937
178	0xbdeae12a	-0.11468728
179	0xbd7180f6	-0.058960877
180	0x3df3f184	0.119113
181	0x3e0b6546	0.13612852
182	0xbe9021fb	-0.28150925
183	0x3d9f6282	0.07782461
184	0x3e3a7370	0.18208098
185	0x3e8a9730	0.27068472
186	0xbe184e59	-0.14873637
187	0xbe961782	-0.2931481
188	0x3e20e909	0.15713896
189	0xbe8d990b	-0.27655825
190	0xbe162149	-0.14661135
191	0x3ea88c6f	0.32919642
192	0xbe337ed3	-0.17528848
193	0x3ea61bc5	0.3244306
194	0xbdef9fa7	-0.11700373
195	0xbdd91912	-0.10600485
196	0xbe1dbb1d	-0.1540341
197	0xbe67858c	-0.22609538
198	0x39cda0f7	0.00039220575
199	0xbdb16f97	-0.08663862
200	0xbe420ac2	-0.18949416
201	0xbe8dc5ec	-0.27690065
202	0x3e95ed24	0.29282486
203	0xbe9f27e1	-0.31085113
204	0x3dcdee42	0.1005521
205	0xbe854889	-0.26031902
206	0xbd6e02a4	-0.058107987
207	0xbdea96ba	-0.1145453
208	0xbe655c13	-0.22398405
209	0x3af9159b	0.0019003631
210	0xbe4aa6e0	-0.1979022
211	0x3e5527b2	0.20815924
212	0x3e0cf4df	0.13765286
213	0x3e1b4beb	0.15165679
214	0x3e4c6d87	0.19963656
215	0xbccc7473	-0.024957871
216	0x3e52e4ea	0.20595136
217	0x3d6e15be	0.058126204
218	0x3e81d754	0.25359595
219	0x3e644782	0.22292903
220	0xbdb13385	-0.08652405
221	0xbc12c190	-0.008957282
222	0xbdfd3add	-0.12364743
223	0x3e90b95b	0.28266415
224	0xbe80b949	-0.2514136
225	0x3e946c6e	0.28988975
226	0x3e881e51	0.2658563
227	0x3d7f6dff	0.06236076
228	0xbe5947bd	-0.21218772
229	0x3d9ab4d7	0.07554024
230	0xbe9d6696	-0.3074233
231	0xbe7af6a6	-0.24508151
232	0xbd35e54f	-0.04440814
233	0x3e56e0d4	0.20984203
234	0x3e169d2b	0.14708392
235	0xbe5ae963	-0.21378092
236	0xbe2ca24b	-0.16858785
237	0x3e985f4f	0.29760215
238	0xbe18933d	-0.14899917
239	0xbc2a0a73	-0.010378468
240	0xbd0ad9a6	-0.033898972
241	0x3df732c7	0.12070232
242	0xbc615dc0	-0.013755262
243	0x3dae1225	0.084995545
244	0x3e4bff66	0.19921646
245	0xbe753469	-0.23945774
246	0xbe7ca201	-0.24671175
247	0xbe27d563	-0.16389994
248	0x3d5ff5ec	0.05467789
249	0xbe372011	-0.17883326
250	0xbe62667a	-0.22109404
251	0xbd800910	-0.062517285
252	0xb904d508	-0.00012667861
253	0xbea6a475	-0.32547346
254	0x3d935c42	0.07195331
255	0x3e4f61c9	0.20252146

fc2.weight f4 [128, 256]
0	0xbca0dafe	-0.019635674
1	0xbcd1211d	-0.025528485
2	0xbcdc2924	-0.026875086
3	0x3d2f4687	0.04279187
4	0x3b557a80	0.0032574236
5	0x3d72f7a8	0.059318215
6	0xbc6dea9b	-0.014521266
7	0x3cbf602b	0.023361286
8	0x3cf8fd2a	0.030394156
9	0xbc100634	-0.008790541
10	0x3d57162b	0.052511375
11	0x3d6c1f68	0.05764714
12	0xbd0bfa8c	-0.034174487
13	0xbc73abb6	-0.014872482
14	0x3d12f9a3	0.035882603
15	0x3d86caf1	0.06581677
16	0x3cf2cd8a	0.029639024
17	0xbcefd2fa	-0.029275406
18	0x3d218935	0.03943749
19	0x3c03f580	0.008054137
20	0x3d3c77c7	0.046012666
21	0xbc858297	-0.016297622
22	0x3cf2bc9c	0.029630952
23	0xbbf39d8b	-0.007434552
24	0x3c9f02b2	0.019410465
25	0x3cacb747	0.021083487
26	0x3a43a7f1	0.0007463685
27	0x3c5a80e0	0.01333639
28	0x3d48d8e2	0.04903496
29	0x3d39f2d6	0.045397602
30	0xbbdf853d	-0.006821303
31	0x3d88eadb	0.0668542
32	0xbcdfde36	-0.027327638
33	0x3c36c076	0.011154285
34	0x3b450ac9	0.0030066243
35	0x3d74aa9f	0.05973303
36	0xbda8a6c6	-0.082349345
37	0xbd2e8721	-0.042609338
38	0xbd061d25	-0.03274264
39	0xbd35b386	-0.04436066
40	0x3d5d0c8b	0.05396704
41	0xbd22d19a	-0.039750673
42	0xbd3a72ea	-0.045519747
43	0xbd74102e	-0.059585743
44	0x3ca9d85b	0.02073305
45	0x3bc97721	0.0061482345
46	0xbc133e43	-0.008987012
47	0x3c257e39	0.010100895
48	0x3deafac2	0.114736095
49	0xbc5a9dc4	-0.013343278
50	0xbcbb1bd6	-0.022840422
51	0x3bab6503	0.0052305474
52	0xbb33fc1c	-0.0027463501
53	0xbd1d09e0	-0.038339496
54	0x3c86b4fa	0.016443718
55	0xbba1664a	-0.004925524
56	0x3d654bee	0.055980615
57	0x3d8f6f21	0.07003618
58	0xbd284d30	-0.041089237
59	0x3d311218	0.043230146
60	0x3cec6359	0.028855966
61	0x3d29a207	0.041414287
62	0x3d0a6318	0.03378591
63	0x3d175138	0.03694269
64	0xbc38f5d6	-0.011289081
65	0xbc56ebdc	-0.013117757
66	0x3d7306e7	0.059332754
67	0x3c86295a	0.01637714
68	0xbba6bdae	-0.0050885295
69	0xbd5e88af	-0.05432957
70	0xbd00acb9	-0.03141472
71	0xbd2018cd	-0.039086152
72	0xba6da1b9	-0.0009064931
73	0xbd0db86e	-0.034599714
74	0xbc4c317c	-0.01246297
75	0x3d08b0ae	0.03337162
76	0xbdc07bf2	-0.09398641
77	0x3c5d21bc	0.013496812
78	0x3d717843	0.05895258
79	0x3c9e163c	0.019297712
80	0xbcc07ade	-0.023496088
81	0xbd1a00c8	-0.0375984
82	0x3d7c6ebc	0.061629042
83	0xbd9760ab	-0.07391485
84	0x3d84e88a	0.06489666
85	0x3cbf4f33	0.023353195
86	0xbc2e6c2c	-0.010645907
87	0x3ca69069	0.020332532
88	0x3cf76507	0.03019954
89	0x3c73362e	0.01484446
90	0x3d5151c5	0.051103372
91	0x3cbd389f	0.023098288
92	0xbcd93eed	-0.026519263
93	0x3daa0cda	0.083032325
94	0x3d1125c6	0.035436414
95	0x3d8e8c64	0.06960371
96	0x3d344722	0.04401315
97	0xbd2799df	-0.040918227
98	0xbbc5b112	-0.0060330713
99	0xbbf3b401	-0.0074372296
100	0x3c7a98c2	0.015295209
101	0x3c28701f	0.010280638
102	0x3cdf068b	0.0272248
103	0x3d90ee36	0.07076685
104	0xbd76d4e6	-0.06026163
105	0x3d4ab686	0.049490474
106	0x3d27b228	0.040941387
107	0xbcecf222	-0.028924052
108	0xbd231461	-0.039814357
109	0x3d1657c6	0.0367048
110	0xbd1758f2	-0.03695006
111	0xbcc5f473	-0.024164414
112	0x3d2a56ac	0.041586563
113	0x3c55e1aa	0.013054291
114	0xbb92fa7c	-0.0044854265
115	0x3d1dac72	0.038494535
116	0x3d96d7e7	0.07365399
117	0xbc87f67a	-0.016597021
118	0xbd0ee3c4	-0.034885183
119	0x3d38c758	0.045111984
120	0x3c5e4401	0.013566018
121	0x3bc20832	0.005921387
122	0xbcf941ba	-0.030426849
123	0xbc95afda	-0.01827233
124	0xbd8af7ba	-0.06785531
125	0x3d12c1d2	0.035829373
126	0xbd17d707	-0.0370703
127	0x3d7ee423	0.062229287
128	0xbc1bbf3a	-0.009506041
129	0xbd18af36	-0.03727647
130	0xbc5dcbc3	-0.01353735
131	0x3ce606d7	0.028079433
132	0xbc26e6c7	-0.010186858
133	0xbc1f8ce4	-0.009738181
134	0xbd7f3850	-0.062309563
135	0x3d86612b	0.06561502
136	0xbaf78d42	-0.0018886703
137	0x3ca2057c	0.019778006
138	0x3c889116	0.016670745
139	0x3d045efb	0.032317143
140	0x3d6eea08	0.05832866
141	0xbcf74783	-0.030185467
142	0xbc540202	-0.012939932
143	0xbce2433a	-0.027619947
144	0x3d9c5edf	0.07635283
145	0xbd4a60c2	-0.04940868
146	0xbc89f45e	-0.016840156
147	0x3c9d1ffc	0.01918029
148	0xbd2a7211	-0.04161269
149	0x3d35b31a	0.044360258
150	0xbd18266e	-0.037146024
151	0xbc84a170	-0.01619026
152	0x3b88b5c7	0.00417206
153	0xbc80bcfd	-0.015715117
154	0xbd311b81	-0.04323912
155	0x3c8f82e3	0.017518466
156	0xbcf8e546	-0.030382764
157	0xbd0d9d71	-0.034573976
158	0x3d5296f4	0.05141349
159	0x3a1ce129	0.0005984479
160	0x3c4a2769	0.012338498
161	0xbd041bf6	-0.032253228
162	0x3c0edd89	0.00871981
163	0x3cf6eb40	0.030141473
164	0x3d31725c	0.043321952
165	0xbb78f73a	-0.0037989155
166	0x3cd657a3	0.026164835
167	0xbadfc342	-0.0017071741
168	0x399cded8	0.0002992067
169	0xbd7daa1a	-0.0619298
170	0x3af1ecf8	0.0018457463
171	0xbc4555aa	-0.01204435
172	0x3b5b3545	0.00334485
173	0x3cad7e81	0.021178486
174	0x3d480158	0.048829406
175	0x3c5346f0	0.012895331
176	0x3d3efdee	0.046628885
177	0xbd09dbbc	-0.03365682
178	0x3cb94f3a	0.022620786
179	0x3d6eef8f	0.05833393
180	0xbce69899	-0.028148936
181	0xbc3f9323	-0.011692795
182	0x3d733ae7	0.059382346
183	0x3d47207b	0.04861496
184	0x3d88e0a4	0.06683472
185	0x3b14deaa	0.0022715726
186	0x3d6ae483	0.057346832
187	0xbbd1beb2	-0.0064009065
188	0x3c3d3e3e	0.011550484
189	0xbce1f849	-0.027584212
190	0xbccb4ddc	-0.0248174
191	0xbc988d8c	-0.018622182
192	0x3d14ab5c	0.036296234
193	0x3d60abba	0.05485127
194	0xbce470a9	-0.027885752
195	0x3b2a7fb3	0.0026016056
196	0x3be9d232	0.007135653
197	0x3b17f929	0.0023189283
198	0xbca847ef	-0.020542113
199	0xbd20ebe0	-0.039287448
200	0x3d246230	0.0401327
201	0xbb9c094d	-0.004761851
202	0xbd340c3a	-0.043956973
203	0x3c1ab71f	0.0094430735
204	0x3d87bc17	0.06627672
205	0xbcf97156	-0.03044955
206	0x3bf6794a	0.007521783
207	0xbd0383b6	-0.03210803
208	0x3d78a7ff	0.06070709
209	0xbd02a7e7	-0.031898405
210	0x3d251fbe	0.040313475
211	0x3c0acf61	0.008472295
212	0xbd471d54	-0.048611954
213	0x3c2774f0	0.010220751
214	0x3c207393	0.00979318
215	0xbd20983b	-0.03920768
216	0xbcc0520c	-0.023476623
217	0x3c38a01d	0.011268643
218	0xbd1459f1	-0.036218587
219	0xbbf56505	-0.007488849
220	0x3c46f9ee	0.012144549
221	0xbcc65468	-0.02421017
222	0xbc692aeb	-0.014231424
223	0xbd449de0	-0.048002124
224	0x3d6405c2	0.055669554
225	0xbd4543bc	-0.0481603
226	0xbd1a3ea3	-0.03765739
227	0xb9b2cbee	-0.00034102745
228	0x3cb1e798	0.021716878
229	0xbd4a0a18	-0.049326032
230	0x3c509192	0.012730019
231	0xbc16fb42	-0.009215178
232	0xbd17d6df	-0.03707015
233	0x3d3d0d7f	0.04615545
234	0xbd3eca43	-0.04657961
235	0xbb2a76a2	-0.0026010652
236	0x3d686dd3	0.05674536
237	0x3c855864	0.0162775
238	0x3d2d8e9f	0.042372342
239	0xbdcd8985	-0.100359954
240	0x3d0e5e61	0.034757975
241	0x3d0545a0	0.032537103
242	0xbcd98adc	-0.026555471
243	0x3a9b581a	0.0011851818
244	0x3cdaf78a	0.026729364
245	0x3c6c308d	0.014415872
246	0x3cfa11db	0.030526092
247	0xbc0661c5	-0.008202021
248	0x3ca0fa29	0.019650536
249	0xbcb36875	-0.021900395
250	0x3d38b145	0.045090932
251	0xbd3deb31	-0.046366874
252	0x3d1e1e7d	0.038603295
253	0x3d4cd1b9	0.050004695
254	0x3d43377b	0.047660332
255	0x3ca565d3	0.020190155

fc2.bias f4 [128]
0	0x3d2175ce	0.039418988
1	0x3d0f9f95	0.0350643
2	0x3b2f6d19	0.0026767908
3	0xbd684ccc	-0.056713864
4	0xbcd79a44	-0.026318677
5	0xbd457d3e	-0.048215143
6	0x3d4a726a	0.04942552
7	0x3d2a1329	0.04152218
8	0x3d9bd449	0.076088496
9	0x3d53a0bf	0.05166697
10	0x3c2f6e4f	0.010707452
11	0xbba04312	-0.004890808
12	0x3d547dc0	0.051877737
13	0x3d208f0c	0.03919892
14	0xbbca3b13	-0.006171593
15	0x3db4ae1c	0.08822271
16	0x3dce2495	0.10065571
17	0x3cd80f81	0.02637458
18	0x3dd5fec6	0.10448985
19	0x3ce17efa	0.027526367
20	0x3d7cffd5	0.061767418
21	0x3cf61018	0.030036971
22	0xbd823a65	-0.06358794
23	0xbc3b38d2	-0.011427121
24	0x3c833e55	0.016020933
25	0x3d96b730	0.07359159
26	0x3cafdec6	0.021468531
27	0x3caef79a	0.0213583
28	0x3d01fa92	0.031733103
29	0xbc7ad1e8	-0.015308835
30	0xbc2af125	-0.01043347
31	0x3d2eb897	0.042656507
32	0xbc6b7b24	-0.014372621
33	0x3b881009	0.004152302
34	0x3b5b2047	0.0033435987
35	0x3d5db1ec	0.054124758
36	0xbc93f06c	-0.018058978
37	0x3d28079b	0.04102288
38	0xbca64f96	-0.020301621
39	0xbc54bdda	-0.012984717
40	0x3cd4f6f8	0.02599667
41	0x3d149a7c	0.03628014
42	0xbd47a90d	-0.048745204
43	0x3d288b92	0.04114873
44	0x3da698a6	0.08134584
45	0x3d6beb15	0.05759724
46	0x3c251f30	0.010078236
47	0x3d6dca76	0.05805441
48	0x3d4bb3ff	0.049732205
49	0xbd5e8e58	-0.05433497
50	0xbc73348b	-0.01484407
51	0x3cd1ceda	0.02561133
52	0x3b410eb7	0.0029458234
53	0xbcd28678	-0.025698885
54	0x3d752269	0.05984727
55	0xbcfccd03	-0.030859476
56	0x3da7bc98	0.08190268
57	0xbbef4856	-0.0073023243
58	0x3bd89b69	0.006610323
59	0x3ce67718	0.02813296
60	0x3cb28ae6	0.021794748
61	0x3d0ac843	0.03388239
62	0xbc5e5985	-0.013571148
63	0xbd7254e7	-0.059163
64	0x3d480c0c	0.048839614
65	0xbc600bff	-0.013674735
66	0x3c2f7f28	0.010711469
67	0x3cb5584d	0.022136832
68	0x3d60bf62	0.054870017
69	0xbc093dbc	-0.008376535
70	0xbd185204	-0.03718759
71	0xbd2d70c5	-0.042343874
72	0x3cc35428	0.02384384
73	0x39e12ab5	0.00042947163
74	0x3d818c47	0.06325584
75	0x3b778022	0.0037765582
76	0xbd6ad7c8	-0.05733469
77	0x3c315ff9	0.010826104
78	0x3ca81b38	0.020520791
79	0xbd87a66b	-0.066235386
80	0xbb6d8dec	-0.0036247922
81	0xbc0b84d0	-0.008515552
82	0xbc4521d1	-0.012031988
83	0x3d6b4f79	0.057448838
84	0xbb8c336f	-0.0042785923
85	0x3dab6447	0.08368736
86	0x3d50ba25	0.05095877
87	0xbbbcde7a	-0.005763826
88	0x3d296049	0.04135159
89	0x3c365f6d	0.01113115
90	0x3ca3c566	0.019991588
91	0x3a1d2e4c	0.00059959735
92	0x3d4ae6db	0.049536567
93	0xbd3a153b	-0.045430403
94	0x3d8191fa	0.06326671
95	0x3cb66190	0.022263318
96	0x3ba7c8a3	0.0051203533
97	0x3c367d93	0.011138338
98	0x3d69282f	0.056923088
99	0xbca004fd	-0.019533629
100	0x3db224ca	0.08698423
101	0xbc2087a2	-0.009797962
102	0xbd189ffc	-0.037261948
103	0x3c2d78e0	0.010587901
104	0x3d2b1ad1	0.04177362
105	0x3d01c9d7	0.03168663
106	0x3d1fc77f	0.039008614
107	0xbd308746	-0.043097757
108	0x3c947b6b	0.018125257
109	0x3ccbdc92	0.02488545
110	0x3d21ede6	0.03953352
111	0x3d35a823	0.0443498
112	0xbbb37e22	-0.0054776827
113	0x3c7e4a48	0.01552064
114	0x3d8e6a69	0.0695389
115	0xbcd463e9	-0.025926547
116	0x3cb6de3b	0.022322765
117	0x3d811afb	0.06303974
118	0xbcdd54fe	-0.027018066
119	0xbc4624f4	-0.012093771
120	0x3d202cfe	0.039105408
121	0xbd130f71	-0.035903398
122	0x3c5ba57d	0.013406155
123	0x3cf4c892	0.029880796
124	0x3b1cef88	0.0023946483
125	0xbc1814c1	-0.009282292
126	0x3d91adaf	0.07113206
127	0x3dad6dd7	0.08468216

fc3.weight f4 [64, 128]
0	0x3ca12436	0.019670587
1	0xbdac8491	-0.084237225
2	0x3d2834c5	0.04106595
3	0xbd7214b5	-0.05910178
4	0xbd8d309d	-0.06894038
5	0x3d8c397a	0.068469
6	0xbd3a1a62	-0.045435317
7	0x3d01b8b2	0.03167028
8	0xbd874188	-0.06604296
9	0xbc83fa20	-0.01611048
10	0x3d927ede	0.07153104
11	0xbd844dfc	-0.06460187
12	0xbd6bb164	-0.05754222
13	0xbc8256a6	-0.015910458
14	0xbd751bc0	-0.059840918
15	0xbb9ab45c	-0.0047212075
16	0xbc384a68	-0.011248209
17	0x3c93471b	0.017978242
18	0x3af39813	0.001858475
19	0xbb045602	-0.0020192866
20	0x3d462afe	0.048380844
21	0xbd818bd7	-0.063255005
22	0x3dae8f6d	0.0852345
23	0x3d72a966	0.059243582
24	0x3b514bd8	0.0031936076
25	0xbc132623	-0.0089812605
26	0xbc525a1c	-0.012838867
27	0x3b89c54b	0.0042044274
28	0x3d4d6074	0.050140813
29	0x3d4ffe30	0.05077952
30	0x3d55e6c9	0.052222047
31	0x3cda3f19	0.026641415
32	0xbd1cc80c	-0.038276717
33	0xbce2dedc	-0.027694158
34	0x3cdfa741	0.027301433
35	0x3d2f9f9b	0.04287682
36	0xbd96c25b	-0.07361289
37	0x3cf1f125	0.029533932
38	0x3d97af94	0.07406536
39	0x3ce9e2a4	0.028550453
40	0xbd93aa6c	-0.0721024
41	0xbda59d4c	-0.080866426
42	0x3da53289	0.080662794
43	0xbd830f78	-0.06399435
44	0x3ce8071e	0.028323706
45	0x3d0cd5e4	0.03438367
46	0xbca004fd	-0.019533629
47	0x3c7ebca4	0.015547905
48	0x3d91dd3f	0.071222775
49	0xbdb87872	-0.09007348
50	0xbd7c4c93	-0.061596464
51	0xbb6ec509	-0.003643336
52	0x3db013a2	0.08597495
53	0xbc802e20	-0.015646994
54	0x3d6749a9	0.056466732
55	0xbd99e977	-0.07515233
56	0xbcb423b8	-0.021989688
57	0x3bf5019c	0.0074769985
58	0xbd5c8d61	-0.053845767
59	0xbc832dd5	-0.016013065
60	0x3db68284	0.08911613
61	0x3da17a2c	0.078846306
62	0x3d9194c9	0.07108457
63	0x3c099dc6	0.0083994325
64	0xbd30e182	-0.04318381
65	0x3c83afaf	0.016074983
66	0x3d30d9f1	0.043176595
67	0xbc38b25d	-0.011272994
68	0xbcf0ccc9	-0.029394524
69	0xbd9cc6c0	-0.07655096
70	0x3dae12b1	0.08499659
71	0xbd55a35a	-0.052157737
72	0x3daa4639	0.08314175
73	0xbcbf4862	-0.023349945
74	0x3a8c25c2	0.0010692405
75	0x3d65c052	0.056091614
76	0x3da3682e	0.07978855
77	0xbd0c7b87	-0.034297492
78	0x3cad275c	0.021136932
79	0x3d4d4f67	0.050124552
80	0x3be14a7f	0.0068753357
81	0x3d74fb14	0.05980976
82	0xbcd0cb3c	-0.025487535
83	0xbd89adf9	-0.06722636
84	0xbd9bff54	-0.07617059
85	0xbda3512e	-0.07974468
86	0x3cb2ab3a	0.021810163
87	0x3d1b6e6d	0.037947107
88	0x3d5b867a	0.053595044
89	0xbd47550a	-0.048665084
90	0x3d9b75e3	0.075908445
91	0xbd1616c2	-0.036642797
92	0x3c898aed	0.016789878
93	0xbb81733e	-0.0039505055
94	0x3c8c25bc	0.017107837
95	0x3d65d4d3	0.056111168
96	0x3d53597a	0.051599003
97	0xbd809fa6	-0.062804505
98	0x3d1e102a	0.038589634
99	0x3cebe520	0.028795779
100	0xbd81d777	-0.06339925
101	0x3d8e126e	0.06937109
102	0xbc535000	-0.012897491
103	0xbcaf8812	-0.021427188
104	0x3c468f44	0.012119118
105	0x3d537581	0.051625732
106	0x3d93f713	0.0722486
107	0x3d15ca58	0.036569923
108	0x3d97d66e	0.07413946
109	0xbbdc1e7d	-0.0067175017
110	0x3d39c06f	0.045349535
111	0x3ce4823d	0.027894134
112	0x3c4d1010	0.012516037
113	0xbc49312b	-0.012279789
114	0x3b1dc798	0.0024075266
115	0x3db8ba7c	0.09019944
116	0x3d920180	0.07129192
117	0x3c8207dd	0.01587289
118	0x3ced6728	0.028979853
119	0x3c2c93a9	0.010533252
120	0x3d467c9d	0.048458684
121	0xbc715de9	-0.014731863
122	0xbd9f91b6	-0.07791464
123	0x3cc53b88	0.024076238
124	0xbd956337	-0.07294314
125	0x3d55fa14	0.052240446
126	0x3d2b4a5c	0.04181896
127	0x3ab51142	0.0013814347
128	0x3cfd4cbb	0.030920377
129	0x3c37044d	0.011170459
130	0x3d15ac9a	0.03654156
131	0x3d2a6b1d	0.041606057
132	0xbc028634	-0.007966567
133	0x3d3e5d08	0.04647544
134	0xbd180397	-0.0371128
135	0xbd131b59	-0.035914753
136	0xbd2a771c	-0.041617498
137	0x3d0bf1e6	0.03416624
138	0x3cd6bcbd	0.026213044
139	0x3cfdcf03	0.0309825
140	0x3cc96b98	0.024587438
141	0x3d9531eb	0.07284912
142	0x3c59dc68	0.013297178
143	0xbd9cd901	-0.07658578
144	0xbdd00f98	-0.10159224
145	0x3bd6e385	0.006557884
146	0xbcc2ba43	-0.023770457
147	0xbd81da07	-0.063404135
148	0xbdb9d9c0	-0.09074736
149	0x3d98224a	0.07428415
150	0xbd28a19e	-0.041169755
151	0xbb38d271	-0.0028201605
152	0xbc3c8b8b	-0.011507879
153	0xbd48cb49	-0.049021993
154	0x3cc59901	0.02412081
155	0xbc8cc863	-0.017185396
156	0x3cd5bf6a	0.02609225
157	0x3d945cf2	0.072442904
158	0x3d83a2da	0.06427546
159	0x3d014f44	0.031569734
160	0xbd2f94f6	-0.04286667
161	0x3ca6bbb3	0.020353174
162	0x3c1d721b	0.009609724
163	0xbd4a8c3a	-0.049450137
164	0x3d6424ba	0.055699088
165	0x3d28f876	0.041252576
166	0xbd7eadd7	-0.062177505
167	0x3d9b6363	0.07587316
168	0x3d0d434e	0.034488015
169	0x3d9b2c3c	0.075767964
170	0xbdb48244	-0.08813909
171	0xbdb0644b	-0.08612879
172	0x3d5820d7	0.052765694
173	0xbc6e60d4	-0.014549453
174	0xbd5a070d	-0.05322938
175	0xbd9a72d5	-0.07541434
176	0xbd2367b0	-0.039893806
177	0xbd96521d	-0.073398806
178	0xbd9d3308	-0.07675749
179	0xbd11dc55	-0.035610516
180	0x3cf443f1	0.029817553
181	0x3d030bd5	0.031993706
182	0xbd9a83a4	-0.0754464
183	0x3bc877a1	0.0061177765
184	0x3c6b785b	0.014371957
185	0xbdae1936	-0.08500902
186	0xbd374ee6	-0.044752978
187	0x3c5e26e1	0.013559074
188	0x3da57aa1	0.0808003
189	0x3bae9e54	0.005328933
190	0xbd923fb4	-0.07141057
191	0x3d548566	0.05188503
192	0xbd99786a	-0.0749367
193	0xbbc61e7a	-0.0060461136
194	0xbda62b8e	-0.08113776
195	0x3d806acb	0.06270369
196	0xbd8f6d48	-0.070032656
197	0x3d0e805c	0.03479038
198	0xbcb1720d	-0.021660829
199	0xbc4052e1	-0.01173851
200	0xbd1e99dd	-0.038720954
201	0xbdb26d48	-0.0871225
202	0x3b28e820	0.0025773123
203	0x3c9bad8d	0.019003654
204	0x3d2d4975	0.042306382
205	0xbda078af	-0.078355186
206	0xbdbcb7b0	-0.09214723
207	0xbbf4cba6	-0.007470566
208	0xbcbd3ba8	-0.023099735
209	0xbdbc406c	-0.09191975
210	0x3c5b14ba	0.013371641
211	0x3d027470	0.031849325
212	0x3d698eb0	0.057020843
213	0xbabdd80e	-0.0014483945
214	0x3d5379b0	0.051629722
215	0x3da691cd	0.08133278
216	0x3ced2386	0.028947603
217	0x3d46d97d	0.048547257
218	0x3d89b8b7	0.06724685
219	0x3d8d111b	0.06888028
220	0xbd876e44	-0.066128284
221	0xbd3f8d4d	-0.046765614
222	0xbc26bb29	-0.010176458
223	0xbdb1f41f	-0.086891405
224	0x3c0b1129	0.008487978
225	0xbcd5949b	-0.026071837
226	0x3d24f198	0.040269464
227	0xbd407cb4	-0.046993926
228	0xbcbfb048	-0.023399487
229	0x3bd13883	0.0063849105
230	0x3d8ac819	0.06776447
231	0xbc5110dd	-0.012760368
232	0x3d43524f	0.047685917
233	0xbcdcb7f2	-0.02694318
234	0x3bc6b5ba	0.006064144
235	0x3cfd065f	0.030886827
236	0x3d3021b5	0.043000896
237	0x3d735f46	0.05941703
238	0xbd427166	-0.047471426
239	0xbd8e41ca	-0.06946142
240	0xbca629d0	-0.02028361
241	0x3d3d49cd	0.04621296
242	0xbd059871	-0.032616083
243	0x3d5afb56	0.05346235
244	0xbd076b28	-0.033061177
245	0x3d085c63	0.03329123
246	0xbc04f179	-0.008114212
247	0xbd960198	-0.07324523
248	0xbd4eb4df	-0.05046546
249	0x3d7d59cc	0.061853215
250	0x3bf13f2c	0.007362267
251	0x3d179791	0.03700978
252	0x3d86b68f	0.06577789
253	0xbce206f4	-0.027591206
254	0xbd0ed909	-0.03487495
255	0xbcff47a4	-0.03116209

fc3.bias f4 [64]
0	0x3cd5d999	0.026104735
1	0xbd9a2f81	-0.07528592
2	0x3e67bebc	0.22631353
3	0x3ddc3ac3	0.107533954
4	0x3d5aba0a	0.053400077
5	0x3cd11ba4	0.025525875
6	0x3cf29d18	0.029615924
7	0x3e0198b2	0.12655905
8	0x3db8b973	0.09019747
9	0x3c9ee5ba	0.019396652
10	0xbcef9098	-0.029243752
11	0xbd5a6d05	-0.053326625
12	0x3d5e046a	0.05420343
13	0x3e03e39f	0.128798
14	0x3d69d3a5	0.057086606
15	0x3d0cd791	0.034385268
16	0xbbd525bf	-0.006504744
17	0x3c98751e	0.018610533
18	0x3d0becb8	0.0341613
19	0x3d059cd4	0.032620266
20	0x3e10847c	0.14113039
21	0x3c457cad	0.012053651
22	0x3ba6ed60	0.0050942153
23	0x3d192680	0.037390232
24	0x3cbf9c54	0.023389973
25	0x3e150436	0.14552388
26	0x3e032c80	0.12809944
27	0xbdb2cc1d	-0.08730338
28	0xbcbc5549	-0.022989886
29	0x3e20354e	0.15645334
30	0x3b9a8674	0.004715735
31	0x3ded0376	0.11572926
32	0xbda0b8b6	-0.07847731
33	0x3e0255db	0.12728064
34	0x3deba331	0.11505736
35	0x3d8e5ac6	0.069509074
36	0x3d6ba3db	0.05752931
37	0x3df6ef20	0.12057328
38	0x3d8767ff	0.066116326
39	0xbaa05467	-0.0012232185
40	0x3ded4c0b	0.1158677
41	0x3bb8ad24	0.0056358743
42	0x3e338ce9	0.17534222
43	0x3e861266	0.26185912
44	0x3d690a61	0.056894664
45	0x3dd5b914	0.104356915
46	0x3d0f4bba	0.034984328
47	0x3d8c9927	0.06865149
48	0x3e3c5489	0.18391623
49	0x3e88c764	0.26714623
50	0xbc4e644d	-0.012597156
51	0x3d2b7346	0.04185798
52	0x3d10812b	0.035279434
53	0xbca28348	-0.01983799
54	0x3dac203b	0.08404585
55	0x3bae52eb	0.005319943
56	0xbc14bd4c	-0.009078335
57	0x3d945f45	0.07244734
58	0xbd89d989	-0.06730945
59	0xbd5fd539	-0.054646704
60	0xbd5b3b4a	-0.05352334
61	0x3d98e4bc	0.074655026
62	0x3cdf0e7f	0.027228592
63	0x3cf6e53a	0.0301386

fc4.weight f4 [1, 64]
0	0x3dad0035	0.08447305
1	0xbd426b3b	-0.047465544
2	0x3d2cf688	0.042227298
3	0x3cd69168	0.026192382
4	0xbd77c705	-0.060492534
5	0xbce474ea	-0.02788778
6	0xbdd23209	-0.1026345
7	0x3cd29b2c	0.025708757
8	0x3d35318b	0.0442367
9	0xbd176fec	-0.03697197
10	0xbd92e6c5	-0.07172922
11	0x3de32204	0.11090472
12	0x3d4f9c44	0.050686136
13	0x3d647975	0.055779893
14	0xbd9fd289	-0.07803828
15	0x3d777b2a	0.060420193
16	0xbdb4e21b	-0.08832189
17	0xbd8eb932	-0.06968917
18	0x3d3d3392	0.04619176
19	0xbdd7eccb	-0.105432115
20	0x3cc72755	0.024310747
21	0x3d77bc4b	0.060482305
22	0xbd91c53c	-0.071176976
23	0x3db0193e	0.085985646
24	0xbd7472bf	-0.059679743
25	0x3cc28ee1	0.02374977
26	0x3d8c45c7	0.068492465
27	0xbca9ba43	-0.0207187
28	0xbdd84dd4	-0.105617195
29	0x3d9d20ce	0.076722726
30	0xbdc7ce4d	-0.097561456
31	0x3d981e2c	0.0742763
32	0xbda76d8d	-0.08175192
33	0x3c9412e2	0.01807541
34	0x3ce92769	0.028461175
35	0xbde33947	-0.11094909
36	0x3d756e20	0.059919477
37	0x3d8e30dd	0.06942914
38	0x3dca078b	0.0986472
39	0x3d0b6db3	0.034040164
40	0x3de17334	0.110083014
41	0xbdbe0fae	-0.092803344
42	0x3d10eaba	0.035380103
43	0x3d32e774	0.043677762
44	0xbde64bab	-0.11244901
45	0x3cabd2b7	0.0209745
46	0xbcde21f6	-0.027115803
47	0x3ccb040c	0.024782203
48	0x3d469fd7	0.04849228
49	0x3cd76d3f	0.02629721
50	0x3d54848a	0.05188421
51	0xbc5c3595	-0.013440509
52	0x3cece34f	0.028916983
53	0xbcb7ee3e	-0.02245247
54	0x3d50c2ac	0.050966904
55	0xbc4563f6	-0.012047758
56	0x3cfb4b48	0.030675545
57	0x3d83bb20	0.06432176
58	0xbdcbc033	-0.099487685
59	0xbda103dc	-0.07862064
60	0xbcbadca8	-0.022810295
61	0x3caf6dd4	0.021414675
62	0x3d0f5a55	0.034998257
63	0xbdde5da4	-0.10857704
