models/modelo_acessibilidade.pt (torch, 700212 bytes, 19 tensors)

fc1.weight f4 [512, 9]
00000000: d821 0e3e d08b 873e b269 47be eb8f 3fbe
00000010: 0d5c 363d 96ff 443e 1ec5 6ebd 4db9 a03e
00000020: f1a0 45bd b35d 203e 75f4 213e 6d9c 46bd
00000030: c8bb 103e d9bb 8e3e 6a84 f7bc aa76 543e
00000040: e2b7 a23c cdf8 823e e13f 053e 1237 4f3e
00000050: e682 09be c43f a5be a9cd 95be 3165 16be
00000060: 7274 5c3e 46a9 723e 0c9f ce3d 75b0 1cbe
00000070: 383f 5b3d 93eb 493e ba71 3c3e 598c 1b3c
00000080: f7b5 a53e 18f2 003e 43ed 9f3c 616d 72bd
00000090: f1ea 2dbe d011 23be bc0f a2be 54f4 37be
000000a0: bf9b b3bd f5a6 77be c7cd 9cbe d492 5bbe
000000b0: 121f 1d3e 3a8c a33d 8ee0 92bc 8d9a 413e
000000c0: 8b9a 533e 4be7 6cba 775c 923c 5156 d63d
000000d0: 4eea 2d3c 9757 17be 053e 903e 93cb 09bd
000000e0: da85 f9bd f094 253e 24e6 0abe be23 96bd
000000f0: 09a6 c03d 8fd3 acbe cefb 6f3d 0aaf c13d
00000100: 741f f2bd fea1 aa3d 775f 28be 0ce2 8b3e
00000110: 1804 a7be 857e 51be 0041 acbd 4c79 91be
00000120: aa4a 973e b53b 6c3e d5af 6bbd 8f6c 243d
00000130: c4b8 6dbe a468 403e 45d7 a6bc aabd 273e
00000140: 1cc0 cabd 8fde 3f3d 1ef3 7c3e 6280 bdbd
00000150: 83ba 6ebb 6a45 30bd 91bc a43e 4cdd 44be
00000160: 5c5f 123e 5db5 933e d8fd 49be 47d7 96be
00000170: c5ef 163e b07d 52bd 7afb 42bd 7634 a5be
00000180: 1508 943e 3205 613e 3234 8e3d d60a 773e
00000190: 54eb 173d a2f5 043d 059e 1dbe 9987 23be
000001a0: 8c9b 6dbd dec8 92be 9361 2b3e f12d 92be
000001b0: 3290 583d 3ba3 b0bd 51d0 413e 3d79 e83d
000001c0: f814 a73d 193a 893e 8450 513e 57d4 54bb
000001d0: 4aea 29bd 3e32 123d 8467 76ba ea59 853e
000001e0: 46cb 013d c12c 993e 44c1 5cbe 0b8e b83e
000001f0: 116f fb3d b091 c1bd d1d7 c8be 6739 9c3e
00000200: 21ef 64be c69c 0c3e 145a d4bd fd46 07be
00000210: 42a3 f1bd 87b4 5cbc 0d1f 5dbe 7829 973e
00000220: 4421 823d b6eb 4e3e 9ef6 96be 391b b73c
00000230: a613 333e d122 3bbd c683 a0be 501e 86bd
00000240: 71cd 8d3e 67a5 9b3d e6d4 273e 08a3 1ebd
00000250: 27f4 34bd 46a5 223d ccd4 88be 896a 523e
00000260: bdc8 0dbd 95a2 87bd 0a63 95be bbfb b5bd
00000270: a0cd 85be 12e8 16be dd88 30be 5c91 213c
00000280: f6e4 073e 633d 513e 664d 9abe 5a3a a1be
00000290: 21bf 933e 2d4e 6ebc 0ccd 543e 8057 123e
000002a0: 8b4c 4f3e 62da e8bd c011 853e 5c57 87be
000002b0: 862e 75be 5678 a33e 0d26 033e 7c58 0b3e
000002c0: 631f 863e 86a8 25be 8b9d 813e f735 853c
000002d0: 904e d63d 662d e0bd 4db8 c03d 3009 b73d
000002e0: 1625 40bd 078c 023d a655 85be 5353 34be
000002f0: fa47 5dbc af57 a13d 91c5 793e 516f a8bd
00000300: 0702 a63d b0ee 81be 4ab0 dfba d9b1 5cbe
00000310: 05ff aa3e 1951 973c 3f1f b0be 371a 83be
00000320: 3b66 4d3e 61f3 963e 03a0 0ebe 1586 183e
00000330: cd24 f63d e3e5 0e3e f0f3 683e 4352 8c3e
00000340: 6050 8e3d 4160 6c3d 60a3 06bd 662f 8d3e
00000350: 739b 9cbe b7b2 82be a327 0dbe 65f3 3d3e
00000360: 2751 803e 14fa 2a3e 1444 a9bd e50c 7fbe
00000370: 606c 6ebe 920b 9dbe eec4 3abe 7fbc e13d
00000380: e452 853e 9ae8 4e3e 5c88 9dbe c657 59be
00000390: 8588 18bc 38ca 6bbd da58 b63d 2492 673c
000003a0: 6a86 8ebd 3c97 633e e049 b33c 4afd 9c3e
000003b0: a3a6 90be 6604 fe3d ef82 f6bd e0ac 7dbe
000003c0: 5b28 b93d d487 593e dbff 71be d2cc 973e
000003d0: 810e 8a3e 1880 893e 9cdb 423d f7f0 37be
000003e0: 6a8b 993e 3f93 593d 3767 a73c eece 6abe
000003f0: 9286 2a3d 31dd 8cbd 8aca d93d 7357 f83d
0.13880098 0.26473856 -0.19473913 -0.18707244 0.04452138 0.19238123 -0.058293454 0.31391373
-0.04824919 0.15660743 0.15815909 -0.048489023 0.14134133 0.2787769 -0.030214507 0.20748392
0.019863073 0.25580445 0.13012649 0.20235851 -0.1342884 -0.32275212 -0.2925847 -0.14687039
0.21528795 0.23697385 0.100889295 -0.15301688 0.053527087 0.1971877 0.18402758 0.009493911
0.3236539 0.12592351 0.019522315 -0.059186343 -0.16984154 -0.15924764 -0.3165263 -0.17964298
-0.087699406 -0.24184783 -0.30625746 -0.21442729 0.15343884 0.079857305 -0.017929342 0.18906613
0.20664422 -0.0009037151 0.017866356 0.10465682 0.010614945 -0.14779507 0.28172317 -0.03364141
-0.12183733 0.16170096 -0.13564354 -0.07331036 0.09406669 -0.33755156 0.05858975 0.09457214
-0.118224055 0.08331679 -0.16442667 0.27320898 -0.3262031 -0.2045842 -0.08410835 -0.28412855
0.29549152 0.23069651 -0.057540733 0.040142592 -0.23215014 0.18789917 -0.02036632 0.16380945
-0.09899923 0.046843108 0.24702117 -0.09253003 -0.0036427088 -0.04303495 0.32175115 -0.19225043
0.14294189 0.28849307 -0.1972574 -0.2946112 0.14739902 -0.051389396 -0.047603108 -0.32266587
0.28912416 0.21974638 0.06943549 0.24125227 0.03708966 0.032460816 -0.15392311 -0.15969695
-0.05800967 -0.28668875 0.1673644 -0.28550676 0.05287189 -0.08624884 0.18927123 0.11351249
0.08158296 0.26802137 0.2044087 -0.0032475197 -0.0414832 0.035692446 -0.00093995803 0.2604516
0.031687997 0.29916957 -0.215581 0.3604587 0.122770436 -0.09451616 -0.39227155 0.30512545
-0.22356845 0.1373168 -0.103687435 -0.13210674 -0.11798717 -0.013470775 -0.21593876 0.29523826
0.06354001 0.20207104 -0.2948503 0.022351848 0.17487964 -0.0456875 -0.31350535 -0.065487504
0.27695802 0.07599907 0.16389808 -0.038729697 -0.044178154 0.0397084 -0.2672485 0.20548452
-0.034615267 -0.06622807 -0.29177123 -0.088859044 -0.26133442 -0.14736965 -0.17239709 0.0098613165
0.13270935 0.20433573 -0.30137175 -0.3148983 0.28856757 -0.014545006 0.20781344 0.14291191
0.20244043 -0.11369778 0.25990105 -0.26433837 -0.23943529 0.31927747 0.12807484 0.13607973
0.2619582 -0.16177568 0.25315508 0.016261084 0.10464203 -0.10946159 0.094101526 0.08937299
-0.046910368 0.03187182 -0.26041907 -0.1760991 -0.01350593 0.078780524 0.24391772 -0.08224357
0.081058554 -0.25377417 -0.0017066088 -0.21552218 0.3339769 0.018471288 -0.3439884 -0.25605938
0.20058529 0.29482558 -0.13928227 0.14894898 0.12018738 0.13954882 0.22749305 0.2740651
0.06948924 0.057708982 -0.03287065 0.27575225 -0.30587348 -0.25526974 -0.13784651 0.18549879
0.25061914 0.1669696 -0.08264938 -0.24907263 -0.2328353 -0.3067289 -0.18239185 0.11022281
0.26039803 0.20205918 -0.30768096 -0.21224889 -0.009309893 -0.057565898 0.08903666 0.014133964
-0.06959231 0.2222566 0.021885812 0.30661994 -0.28252134 0.12403183 -0.12036692 -0.24772978
0.090409 0.2124322 -0.23632757 0.29648453 0.2696419 0.2685554 0.047572717 -0.17963015
0.29989177 0.05311894 0.020434959 -0.229305 0.041632243 -0.068781264 0.106343344 0.121260546

fc1.bias f4 [512]
00000000: 1155 e53d edb7 3a3e ab2d 37be ca83 813d
00000010: 4ec4 8cbe 6613 5abd 09b2 b4bc 145d 823e
00000020: 43fb 8e3e fc75 853e 12f6 963d 2c63 833b
00000030: f0b9 64be d785 2cbd 4e72 8ebd dc3e 08bd
00000040: 2e42 1fbd 78c4 443e 378d 183e 5d59 d33c
00000050: 95de 43be 3481 8f3d c60b 003d e22e 113e
00000060: c2be 5e3d d2f5 9e3e 172c 0fbe 2e07 9ebe
00000070: 0d82 33bc 849e 943e 4ff0 893d bba0 003e
00000080: 8a31 0d3d 317f a7be 06b6 35be b724 f03d
00000090: 9439 a03d b5e8 a53e 6931 723e 0e3b 223e
000000a0: 2583 8a3e 88be 1d3e c46c 873e f5d7 90be
000000b0: 95d6 9b3e 8379 a23e 60ec 89bc 66d1 933e
000000c0: c5b7 07be db94 97bd fb28 31be a9d4 fabd
000000d0: 5e91 903e 5b06 debc 8f1a d8bd d283 35be
000000e0: 911b 8fbe 178e 20be 824f c93c 392a 813d
000000f0: a1ab 5e3e a44b 39be 008d 87bd fd47 afbd
00000100: aad5 023e c3d1 873d ceac 833e 9825 823e
00000110: 34b6 9abe 321b bebd eee8 143e 50da 0f3e
00000120: edb1 96be 9adb dbbd 3a36 e6bd 76d7 e53c
00000130: cd5a 82be 4abd 6c3d 00a0 463e e3e4 a83e
00000140: 9e42 37bc 9566 3cbc b1be e3bd d1d0 cabd
00000150: 16fd 43be e502 a0bd fedb 72be 06b0 6fbe
00000160: 9d53 17be a4e6 a33e f12d a03e 249d 1e3d
00000170: a62f 923e 9c1a 7e3a afe3 8cbe a676 07be
00000180: cb86 903d 4f09 0e3e 2ad8 543e 5eac bdbc
00000190: e575 7c3e 0bd2 a43e 3f09 4bbd a939 bdbd
000001a0: defa 2ebe 3db0 84be b9b8 6ebe 4383 9dbe
000001b0: f2b9 513e 3921 3a3e 55e8 0a3e 4c19 6dbd
000001c0: fa2e e6bd c0c2 77be 6337 643e ee76 27be
000001d0: 275a 4fbe 601d e63d 892c 523e aede 71be
000001e0: 05d3 b9bd 113e 3e3e 2b98 6c3e 523a 7d3d
000001f0: 8a96 863e 2988 a33d 7c0a 62be 1873 5f3d
00000200: 6045 943e bc99 86be 789b 343e 8d8f 9b3e
00000210: 389f cb3d a2e0 92be b92d 3bbd 0500 48be
00000220: c234 a0be 9753 943d 6865 9f3e 4062 823e
00000230: 6927 38be cb4d a6be ee4a 8d3e ac58 0cbe
00000240: 3963 7fbe 8cb5 50be 8465 213e 47ad 9dbe
00000250: 9868 6b3e d1c1 03bb b51b 6b3d 1c3f 28be
00000260: 9f39 f03d 12f5 e33c a690 9bbe d1c6 9cbe
00000270: 1adf 713e dd3d ccbb 3574 0e3e 2ffa a6be
00000280: 2b28 483e 61db 4bbe 3c95 99be 39b9 883e
00000290: 5050 5fbd 8c49 49be 5a40 8e3e 0233 a73e
000002a0: 1c96 98be 1903 a1be 5ae6 cf3d 1035 cbbd
000002b0: 1207 4e3e 57c0 6b3e 0843 6dbe 530b f33d
000002c0: e6d1 aa3d 4645 0fbc dc23 5e3c 8411 99be
000002d0: d941 6cbe 4afd a2be 6376 223d 1e59 13be
000002e0: 965e 883e 35db 5abe b838 863d b948 833e
000002f0: 536c e03d b817 43be 5fc2 1a3c e38d 25be
00000300: 16a4 6e3d d3b2 39be a6b9 9e3e a978 873d
00000310: 9cb7 62be 232c 51be e036 e2bc 21b4 743e
00000320: ff0a 9fbc 1897 89be 8ef3 69be ed7b 32be
00000330: 5b2b 99bd 20ed 97bd e856 96bd 0a74 60bd
00000340: 984f 01be 34bb a7be dfbd d6bd 89dc a33e
00000350: 4e00 933e c15e a2be 9d91 5c3e 9ec4 9c3e
00000360: cbc4 e23d 4b8b f43c 70bc 943e 19db 153e
00000370: 16a4 58be 590b 0fbd 4b87 463e 0c88 a13e
00000380: a64e 593e a4e7 babd fb8b a63e dd5b 9bbd
00000390: 7c5a a33e 4097 753e 223a 553e 6f58 9ebe
000003a0: 7cc9 563c 7b73 2c3e 8314 583d 3a85 a7be
000003b0: 4589 55be 8599 f63c b5d7 763e 2c7a 203e
000003c0: 7f78 203c 3e72 213e c2da 943d 90f3 a23e
000003d0: 02f1 5dbe 87d7 18bd e572 01be 4e90 e0bd
000003e0: e14a a33e 436f 97be 84fe 8c3e cca2 febd
000003f0: 5f1d 94be 7d98 a63e a658 82be 5a70 5abe
0.11197866 0.18234225 -0.17888515 0.06323965 -0.2749352 -0.053241156 -0.02205755 0.25461638
0.27926072 0.26066577 0.07371153 0.004009625 -0.22336555 -0.042119827 -0.06955396 -0.033263072
-0.038881473 0.19215572 0.14897619 0.025799448 -0.19127877 0.070070654 0.031261228 0.1417804
0.05438114 0.3104692 -0.13981663 -0.30864853 -0.0109562995 0.29027188 0.06735288 0.12561314
0.034471072 -0.32714227 -0.17745218 0.11725753 0.07823482 0.32404104 0.23651661 0.1584284
0.2705318 0.15404713 0.2645017 -0.28289762 0.3043715 0.3173333 -0.016836345 0.28870696
-0.13253696 -0.07401439 -0.17300789 -0.12247593 0.28235906 -0.02710264 -0.10551941 -0.17726067
-0.2795072 -0.15679203 0.024574045 0.063068815 0.21745159 -0.18095261 -0.066186905 -0.085586525
0.12776819 0.06631806 0.25717777 0.25419307 -0.30217135 -0.09282531 0.1454198 0.14048123
-0.29432622 -0.10735245 -0.11240812 0.028056841 -0.254599 0.057797708 0.19396973 0.32987127
-0.011185316 -0.011499067 -0.11120356 -0.0990311 -0.19139513 -0.07813052 -0.23716733 -0.23406991
-0.1477799 0.32011902 0.3128505 0.03872408 0.28551978 0.0009693296 -0.2751746 -0.13228855
0.0705696 0.13870738 0.20785585 -0.02315348 0.24654348 0.321915 -0.049569365 -0.092395134
-0.17087886 -0.2591571 -0.23312654 -0.30764207 0.20481089 0.18176736 0.1356519 -0.057885453
-0.11239429 -0.24195385 0.22286753 -0.16353962 -0.20249234 0.112360716 0.20524801 -0.23620102
-0.09073452 0.18578364 0.23104922 0.061823197 0.26286727 0.07984955 -0.22074312 0.05455312
0.2895918 -0.26289165 0.17637432 0.30382958 0.09942478 -0.28687006 -0.0456979 -0.19531257
-0.3129025 0.07242506 0.31132054 0.25465584 -0.17983784 -0.32481226 0.2759623 -0.137057
-0.24940194 -0.20381755 0.15761381 -0.30796263 0.22989118 -0.0020104537 0.05739947 -0.16430324
0.1172974 0.02782682 -0.30383795 -0.30620435 0.23620263 -0.0062329606 0.13911517 -0.3261275
0.19546573 -0.19907905 -0.2999667 0.26703814 -0.05451995 -0.19656962 0.2778347 0.32656103
-0.29802024 -0.31447676 0.10151358 -0.0992223 0.20119885 0.2302259 -0.23170102 0.11867394
0.08340816 -0.008744543 0.013558354 -0.29896176 -0.23071994 -0.3183387 0.039663684 -0.14389464
0.26634663 -0.21372683 0.06553787 0.2564142 0.10958161 -0.19052017 0.009445756 -0.16167407
0.058261953 -0.18134622 0.31001014 0.06614811 -0.22140354 -0.20426993 -0.027614057 0.23896839
-0.019414423 -0.26873088 -0.22846815 -0.17430086 -0.074789725 -0.07418275 -0.07340795 -0.054798163
-0.12628019 -0.32760012 -0.10485434 0.32004192 0.2871117 -0.31712916 0.21539922 0.30618757
0.110726915 0.029851576 0.29050016 0.1463436 -0.21156344 -0.03492293 0.19387548 0.31549108
0.21221408 -0.09126213 0.32528672 -0.07585881 0.31904972 0.23983479 0.20822957 -0.30926844
0.013109561 0.16840927 0.052753936 -0.3271883 -0.20853145 0.0301025 0.24105723 0.15671605
0.0097943535 0.15766236 0.07268287 0.31826448 -0.21673968 -0.037314918 -0.12641485 -0.10965024
0.31893066 -0.29577073 0.2753793 -0.12433395 -0.28928658 0.32538214 -0.25458258 -0.21331921

bn1.weight f4 [512]
00000000: e508 7e3f 404f 7e3f d718 803f 4648 7f3f
00000010: 3f6f 803f b6ce 7e3f 04db 7e3f 6665 7d3f
00000020: 594e 7f3f a52d 7c3f e96c 7e3f fcf1 803f
00000030: ff44 803f e879 7b3f 81c0 803f 0e4c 803f
00000040: 8b1e 7f3f a244 803f ef33 7d3f 99e1 7c3f
00000050: 3e4f 803f da55 7c3f d954 803f aad4 7e3f
00000060: aea2 803f 63a6 7f3f cf24 7e3f 4133 7d3f
00000070: 7617 7f3f 61c3 813f ef4e 7c3f eafb 7a3f
00000080: cb0c 803f 5fe9 803f fefc 7d3f 4e6c 803f
00000090: f4d1 803f 1603 7d3f 6b41 803f 4889 7c3f
000000a0: 6573 803f 598a 823f 5525 803f 557e 7d3f
000000b0: bc3e 7e3f 8286 833f e84d 833f 5498 813f
000000c0: a4d9 7c3f 9c63 813f effb 7e3f e6ca 7f3f
000000d0: 8382 7f3f 3fc7 7b3f 2455 813f 6ad9 7d3f
000000e0: b56c 803f 1d17 7f3f 94e6 7d3f 9635 823f
000000f0: 1992 7e3f 2380 803f 8c43 7e3f 1207 7f3f
00000100: a79a 803f aeef 813f 4ab9 803f dd41 833f
00000110: 5bf7 7e3f 5973 803f 215b 7d3f 0c0f 803f
00000120: 97c7 7f3f f0d3 7f3f 8e57 7d3f 8cdf 7e3f
00000130: f5f4 7c3f a888 7d3f 1617 7e3f b84b 7e3f
00000140: 05fb 803f f9c4 803f aa20 803f fb52 7e3f
00000150: 3ad6 7e3f 24f3 7e3f fb89 803f 6ecc 803f
00000160: c692 813f 025f 7c3f 7d41 803f a2de 7d3f
00000170: e327 7e3f 6386 803f 2f8f 7e3f 13d1 7f3f
00000180: 94aa 813f 4805 7e3f 5ae2 803f a2a6 7d3f
00000190: a091 803f 286d 7e3f 7d42 803f c2e7 813f
000001a0: c607 803f 3640 803f 7eef 7e3f d34c 7e3f
000001b0: 8b4d 7d3f 20e8 7e3f 981c 823f c3b4 803f
000001c0: f233 7e3f 6dd3 7f3f 7149 7f3f 0629 803f
000001d0: d722 7d3f 1c5d 7e3f f0b9 7a3f 5261 803f
000001e0: c9b3 7f3f 747c 7d3f 0c8e 813f 362a 803f
000001f0: b92b 7d3f 8e93 7d3f a829 813f 6455 813f
00000200: 2a06 7d3f f96f 7f3f 29e2 7f3f e53a 803f
00000210: eb1c 7d3f ce59 7e3f 3db7 803f aee8 7d3f
00000220: 58ba 7f3f 4e0f 7e3f 851e 843f 9b71 7f3f
00000230: 3fc0 7d3f 2653 7e3f d89d 803f e2f4 7e3f
00000240: 5179 7e3f b74e 803f 4628 803f 3a1c 7c3f
00000250: acd1 7f3f 0d2a 813f 6ede 7f3f 5f4d 813f
00000260: 1bd7 7d3f acd3 7f3f 95a5 7d3f b23f 803f
00000270: d995 823f c014 7e3f 2f75 7c3f bb41 813f
00000280: 458c 7d3f 8371 803f ee45 803f 9869 7d3f
00000290: 4dd4 7e3f 88e1 813f 4959 803f 0c52 7f3f
000002a0: 7545 813f 838b 7f3f 1049 7e3f 007d 7e3f
000002b0: 8a85 7d3f ccae 7f3f ca27 7c3f 331a 7f3f
000002c0: 01ec 803f d1c0 803f 1906 7f3f bb2b 7e3f
000002d0: afc7 7e3f cb6c 803f ad3b 7e3f 16c2 7d3f
000002e0: b5d7 803f 2468 7d3f 6fe5 813f 8a8a 803f
000002f0: 5694 813f e5eb 843f 68e6 803f 5e75 7f3f
00000300: bae0 803f 5e79 7f3f e91d 813f 9061 7e3f
00000310: 51fa 803f 3373 803f b2e8 803f 729b 7e3f
00000320: 86a2 803f 703d 7d3f e7f9 7e3f 2713 813f
00000330: e833 803f 9bb4 803f 77b3 7f3f 933d 803f
00000340: 5079 803f cb6b 803f a2ae 7d3f ed53 833f
00000350: 915f 803f bf27 7d3f 0b9f 803f db62 803f
00000360: a370 813f 999d 803f cc8b 7b3f ab47 803f
00000370: d89f 7e3f 0a84 7d3f 0433 7b3f 469b 803f
00000380: 645d 7f3f 9262 7a3f d406 7e3f f97e 803f
00000390: ae79 803f 16b4 813f ee39 803f ad9e 7c3f
000003a0: 239a 7e3f 9c96 813f f2c1 813f 308f 803f
000003b0: e727 803f fd79 803f e6bd 7f3f f149 813f
000003c0: 45f4 7e3f dddf 7f3f 45fa 7e3f 2a6c 813f
000003d0: e596 7f3f b80b 7f3f 7b92 803f 3a8e 7f3f
000003e0: a979 7d3f 4902 7f3f bfdb 803f 2d04 7f3f
000003f0: 1d00 803f 8b0a 7e3f 0f1a 823f a997 7e3f
0.9923232 0.99339676 1.000758 0.99719656 1.003395 0.99534166 0.9955294 0.98982847
0.99728924 0.9850715 0.99384934 1.0073848 1.0021056 0.9823289 1.0058748 1.002321
0.9965598 1.0020945 0.9890737 0.98781735 1.0024183 0.985685 1.0025893 0.9954325
1.0049646 0.9986326 0.99274915 0.9890633 0.99645174 1.013775 0.98557943 0.9804064
1.0003904 1.0071219 0.9921416 1.0033052 1.0064073 0.98832834 1.0019964 0.98646975
1.0035216 1.019847 1.0011393 0.9902089 0.99314475 1.0275424 1.025815 1.0124612
0.98769593 1.0108523 0.9960317 0.99918973 0.9980852 0.983509 1.0104108 0.9915987
1.0033175 0.99644643 0.9917996 1.0172603 0.9944168 1.0039104 0.9932182 0.99620163
1.0047196 1.015127 1.0056546 1.0254475 0.99596184 1.0035201 0.98967177 1.0004592
0.99913925 0.99932766 0.9896172 0.99559855 0.98811275 0.99036646 0.99253976 0.9933429
1.0076605 1.0060111 1.0009968 0.9934537 0.99545634 0.99589753 1.0042108 1.0062387
1.0122917 0.9858247 1.0019985 0.99167836 0.9927961 1.0041012 0.9943723 0.99928397
1.0130181 0.9922681 1.0069077 0.99082386 1.0044441 0.9938531 1.0020291 1.0148852
1.0002372 1.0019596 0.99584186 0.99335974 0.98946446 0.99572945 1.0164976 1.0055164
0.9929801 0.99931985 0.9972144 1.0012519 0.98881286 0.99360824 0.9793997 1.00297
0.99883705 0.99018025 1.0121474 1.0012882 0.9889484 0.99053276 1.0090837 1.0104184
0.9883753 0.9978023 0.9995447 1.0017973 0.9887225 0.9935578 1.005592 0.99183166
0.99893713 0.99242103 1.0321814 0.99782723 0.9912147 0.99345624 1.004817 0.9959241
0.99403864 1.0024022 1.001229 0.9848057 0.9992931 1.0090958 0.99948776 1.0101737
0.9915635 0.9993236 0.99080783 1.0019438 1.020198 0.9925041 0.9861631 1.0098184
0.9904216 1.0034641 1.0021341 0.9898925 0.99542695 1.0146952 1.0027248 0.9973457
1.0099322 0.99822253 0.99330235 0.99409485 0.9903189 0.99876094 0.98498213 0.9964935
1.0072023 1.0058843 0.9961868 0.9928548 0.99523443 1.0033201 0.9930981 0.99124277
1.0065829 0.9898703 1.0148143 1.0042279 1.0123394 1.0384489 1.0070314 0.99788463
1.0068581 0.99794567 1.0087253 0.9936762 1.007639 1.0035156 1.0071013 0.9945594
1.0049598 0.9892187 0.9960007 1.008397 1.001584 1.0055116 0.99883217 1.0018791
1.0037022 1.0032896 0.99094594 1.0259987 1.0029165 0.9888877 1.0048536 1.0030168
1.0112499 1.0048095 0.9826019 1.0021871 0.9946265 0.990296 0.9812472 1.0047386
0.9975188 0.97806656 0.9922917 1.0038749 1.0037134 1.0133083 1.0017679 0.9867962
0.99453944 1.0124087 1.0137312 1.0043697 1.0012177 1.0037228 0.9989914 1.010069
0.99591476 0.99950963 0.9960063 1.0111134 0.9983962 0.99627256 1.0044702 0.99826396
0.99013764 0.9961286 1.0067061 0.99615747 1.0000035 0.9923484 1.0164202 0.99450165

bn1.bias f4 [512]
00000000: 6280 4bbc dac0 d1bb 7112 0eba 692b 533b
00000010: d76a 16bb cc87 debb 1054 0c3a 81e5 8abb
00000020: 17fa 7abb 14f6 75bc de11 8dbb 69b8 8ebb
00000030: 1877 873b bb52 1ebc 2612 4b3c 67ec 383c
00000040: 3da1 3ebc 3a57 e6bb 8722 39bc 7713 ffbb
00000050: 9331 26bb 3581 e3bb 72a9 193c 8371 c4bb
00000060: 5398 8dbb 7552 9aba 4bb1 d4ba bf41 adbb
00000070: 19a6 93bb f037 fc3a 86c9 7cbb 37e2 a0bc
00000080: a27a 26bc 7142 f13a 4634 a0bc c24f b7bb
00000090: 0a64 10bb 1ce2 cbba c0c9 02bb 97bd 45bc
000000a0: ab29 abba a7bd 653c 4cd7 89bb 8057 1ebc
000000b0: 4b42 08bc f2d5 843c 1dc3 6f3c 4a5e 80ba
000000c0: 1afa 2abc 45cb 92ba 3e9a 7f3a 1bd6 30b9
000000d0: 7424 6abb d41f 5dbc bf45 33ba 0aeb 8bbb
000000e0: 8e22 0c3c dd65 8eba e9ec 49bc 1bd2 eb3b
000000f0: 7106 d4bb 06d4 fd3a 626d 44bc 5bf5 86bb
00000100: c6cf b83b 46c8 783c f2cb e23b b87c 873b
00000110: eff0 34bc 2e8c 023c 3065 12bc 419f 9abb
00000120: 35d3 80bb 7448 21bc 21c0 81bb a4b1 d0bb
00000130: 1514 8abc 2981 99bb 3f97 35bc 15e8 82bc
00000140: 0765 bf3b 4d9e 943b f191 fdb9 284d 4ebb
00000150: c0b4 72bc a09a d0bb fb5d 373c 2bae 7e3b
00000160: 624d 053c 37f0 abbb 24c1 94bb 4b1b 13bc
00000170: e8c4 273b 408a b4ba 4e2b ffbb 3c49 1ebc
00000180: e98c 78bb 2e0e 07bc 5a35 493c 5043 30bc
00000190: aa21 0a3a fdca a7bb cde4 3e3c e0d4 813c
000001a0: 8e80 d3bb 5426 54bb 1fe6 ba3b 9f49 f3bb
000001b0: 71f5 26bc 288e 31bc c183 23ba b3ba f6ba
000001c0: ed1c 45bc fbc0 8cba 672a 03bc b03b c9ba
000001d0: 8631 1abc 9d6d fb39 4776 37bc 5b24 02bc
000001e0: 2a28 5a3b d748 083a 1f6e 99bb 9239 2a3b
000001f0: fa14 b0bb 4d85 08bc 93ad ecbb e92f ba3b
00000200: 5f40 d5bb e69d 6dba f7a0 253b 3f96 0e3b
00000210: 537f 29bc 8a38 aebb 45f9 edb9 ac85 83bb
00000220: f8b0 f3bb c141 bcbb 6d76 8f3a ef74 1cbc
00000230: cad5 c9bb 2898 07bc 8c95 fb3b 1367 b9bb
00000240: 37bc 6abc d71c 95bb 1b65 2d3b 5afa 9abc
00000250: 6bcf 05bc 75ba db3b 9766 15bb 46a1 f63b
00000260: dc00 69ba b4c7 9bbb bc58 05bc 1c67 90bc
00000270: 50ae 5f3c 06ed c7bb 9233 81bc d480 e63a
00000280: 725f 2fbc 2adf a8bb 589b bbba 9aaf d0bb
00000290: 7c91 77bb 98be 4d3c 00a6 173a 895d 8a3b
000002a0: 640b 69bb 6f16 feba 3459 f6bb 47c9 e1bb
000002b0: 004f c6bb 4a3d 91bb 0833 cebb bcf6 cfba
000002c0: 55dc 7cbb e569 2a3a 96fb 20bb 82b5 02bc
000002d0: fa2a d0bb 0679 203c e133 c939 c429 23bc
000002e0: 1e73 233b 5bfb 52bc 115c 3cba 22de e2ba
000002f0: a535 0a3c 46a6 853c dcff 883c 3c9a f43b
00000300: b158 a93b c12d 123b ef4e d83b 0736 b1ba
00000310: b79b 013b 390e 93b7 35b7 dd3a 569d babb
00000320: 9245 203a 86fb 063b 54c5 f6bb 8d3e fc3b
00000330: 4e2a ddbb 68a2 883c fe2e c7bb 9407 70bc
00000340: d20e ec3b 4900 fe39 315e 08bc cf14 0b3c
00000350: ad64 903a cd84 97bc ca3d 103c fe48 3ebc
00000360: f02a e439 2644 3abc 9048 28bc 9f17 8ebb
00000370: b911 9cbb 6306 a8bb 292b b6bc caca 523a
00000380: 20ab 58ba 8c88 78bc 3750 75bc e279 b63b
00000390: 865a c5bb ea8e d03c 4759 efbb cec5 01bc
000003a0: e865 28bc 44d0 353c 56e3 543c b3aa a73b
000003b0: 40df 6e3a e873 5d3c 2944 92bb e8e8 a93c
000003c0: d50e 453b fc2f 1cbb 44b1 92bb 4347 8c3b
000003d0: e206 2dba 8c0d 3a3b 147e cb3b 1281 dcba
000003e0: 51d3 f5bb 96f8 babb 8992 443c 8888 94bb
000003f0: 3fcd 133a cbe3 74bc c6ce c03b 06c2 77bb
-0.012420746 -0.0064011635 -0.0005419618 0.003222192 -0.0022951865 -0.0067910906 0.00053531025 -0.004238785
-0.0038296038 -0.015012283 -0.0043051085 -0.0043554795 0.00413407 -0.009663279 0.012394464 0.011286831
-0.011635122 -0.007029441 -0.011299736 -0.007784303 -0.0025359138 -0.006942893 0.009378778 -0.005994977
-0.004321137 -0.0011773842 -0.0016227154 -0.0052873786 -0.0045058844 0.0019242745 -0.0038572266 -0.019639118
-0.010161074 0.0018406642 -0.019556176 -0.0055942247 -0.0022032284 -0.0015555057 -0.0019956678 -0.0120691275
-0.0013058683 0.014022267 -0.0042065736 -0.009664416 -0.008316587 0.016215298 0.014633921 -0.0009793725
-0.010435605 -0.0011199495 0.0009750462 -0.00016864428 -0.0035727294 -0.013496358 -0.0006838701 -0.004269962
0.00855316 -0.0010864098 -0.01232455 0.0071966774 -0.0064704944 0.0019365556 -0.0119889695 -0.004118604
0.005640003 0.015184468 0.006921285 0.0041347407 -0.011043771 0.007967992 -0.008935258 -0.0047186916
-0.003931428 -0.009843934 -0.003959671 -0.0063688327 -0.016855279 -0.0046845865 -0.011083423 -0.015979806
0.005840901 0.0045354725 -0.00048364655 -0.0031479094 -0.014813602 -0.006366089 0.01119184 0.0038861136
0.008136125 -0.0052471417 -0.0045396257 -0.008978675 0.0025599543 -0.0013774112 -0.0077871447 -0.009661015
-0.0037925786 -0.008243127 0.012280786 -0.010758236 0.00052692986 -0.0051206336 0.01165123 0.015848577
-0.006454534 -0.0032371478 0.005703702 -0.007424548 -0.010190354 -0.010837115 -0.00062375894 -0.0018823951
-0.012030822 -0.0010738665 -0.008005715 -0.0015352871 -0.009411221 0.0004795612 -0.011197633 -0.007943238
0.00332881 0.0005198842 -0.004682317 0.0025974256 -0.0053735944 -0.008332563 -0.00722284 0.005681981
-0.006507918 -0.0009064361 0.0025272944 0.0021757034 -0.010345298 -0.0053167986 -0.00045389883 -0.0040137377
-0.007436868 -0.005745143 0.0010945328 -0.0095493635 -0.006159519 -0.008276023 0.0076777395 -0.0056580394
-0.0143271005 -0.004550557 0.0026457969 -0.018918205 -0.008167128 0.006705577 -0.0022796744 0.0075265495
-0.00088883727 -0.004754031 -0.008138832 -0.017627291 0.013652399 -0.0061012534 -0.015771661 0.0017586001
-0.010703908 -0.0051535564 -0.0014313264 -0.0063685896 -0.0037775924 0.012557648 0.0005784929 0.004222576
-0.0035559768 -0.0019385348 -0.007517958 -0.006890449 -0.006051898 -0.004432355 -0.0062927045 -0.0015866379
-0.0038583477 0.0006500765 -0.002456402 -0.007977845 -0.0063527795 0.009794479 0.0003837636 -0.009958688
0.0024940441 -0.012877311 -0.000718535 -0.0017308632 0.008435641 0.016314637 0.016723566 0.007464675
0.0051680435 0.0022305103 0.0066012065 -0.001352013 0.0019776651 -1.7530389e-05 0.0016915562 -0.0056950254
0.00061138824 0.0020596697 -0.0075308476 0.0076978863 -0.006749428 0.016679004 -0.0060786 -0.014650244
0.007203915 0.00048446868 -0.008323238 0.008488848 0.0011016332 -0.018495942 0.008803794 -0.011614082
0.0004351954 -0.011368787 -0.0102712065 -0.004336312 -0.004762855 -0.0051277145 -0.022237377 0.0008041082
-0.00082652457 -0.015169274 -0.014972738 0.005568729 -0.006022754 0.025458772 -0.007304344 -0.0079206955
-0.010278203 0.011097018 0.012993654 0.0051167845 0.00091122463 0.013516404 -0.0044636917 0.020740941
0.0030068655 -0.0023832312 -0.004476698 0.004280956 -0.0006600452 0.0028389422 0.006210098 -0.0016823134
-0.0075019975 -0.0057059033 0.011997827 -0.0045328774 0.0005638189 -0.014946888 0.0058840243 -0.0037804856

bn1.running_mean f4 [512]
00000000: 8675 e0bf 5abb a9be 85cd 06bf b9e9 4dbf
00000010: 1895 e53f 9058 133e 9555 5340 06d0 a9be
00000020: 8854 b93e 2693 b7bf 8c6b bdbe 8dde 2dbf
00000030: 9a82 8fbf c15f d3bf 1ac7 0840 b98e a9bf
00000040: 2f82 09c0 6416 c3bd c7dd e1bf 2952 49c0
00000050: 3d57 9c3e a04e 95be 32f9 78be 65c7 38bf
00000060: 662e bfbe be66 cd3f 4cfc 0040 a821 afbf
00000070: bb12 1cbf 3c6b 443f 8f87 753f 0cd8 8cbf
00000080: 7d2f 24c0 57a2 dcbd b8ee b83f 901d adbf
00000090: 0c3d 47c0 6f0e efbf 21a2 303f bc74 3c3e
000000a0: 6184 1640 9a12 0a3d 5d70 4ebe 4580 3c40
000000b0: a2b3 263f 6282 933f 3233 a63f e9e0 3c3f
000000c0: 5391 11c0 c79e 20c0 ad61 5d3f 5ae3 07c0
000000d0: 75f8 3840 c63a 7340 3e45 29bf 9276 3d40
000000e0: b74c a43e 511a bf3d 581e 8f3e 8e59 dfbf
000000f0: b075 2d40 3ac3 57bc 4f70 2340 cfdc 4ebf
00000100: d2b9 e43f 22f9 8e3f 193b c93f 7f09 bebe
00000110: 6f87 983f 5168 1c40 5282 c63f 6ff7 08c0
00000120: fd92 0e40 b9f0 1ec0 86a5 5040 d69d da3f
00000130: 34e7 c3be b4a2 90bf 77e0 aebf c39e 55be
00000140: 2a75 0040 8afd b9bf 7f4b 803f cd04 adbf
00000150: d4f1 873e a0d2 cdbf 6fd1 673f 703d dcbf
00000160: 381f fcbf e84b 14bf 8b93 98bf 41a7 0340
00000170: e9aa 853f 1772 1fbf f249 89bf 5aa2 96bf
00000180: 572b 49bf eca1 42bf d922 40c0 346e ddbf
00000190: 1568 7ebf 6d42 503f 9c87 853e 1e81 e63e
000001a0: 3823 5fbf 79fb 5ac0 f63e 4440 358f 84c0
000001b0: 7db7 3640 558b 5dc0 ab00 0bc0 7102 79bf
000001c0: 258c cabd 352d 253f ff51 b3bf 3236 993f
000001d0: 8505 f63f cfcf 80c0 59fb 253f 35b1 3ebf
000001e0: 5d80 5a40 586f 033f da32 703e 505b 42bf
000001f0: 2ef3 803f c7a8 833f a58b d3bf 3dd6 bcbe
00000200: 4a3e fabf 1eb5 6e3e 5dda ef3e e885 0940
00000210: c11f 1940 2f15 7ebf a876 5ec0 0db2 673f
00000220: 16a6 0ebf 0f80 0640 149a a33f d2d0 10c0
00000230: 6fe1 58c0 0e2d 6fc0 6fbb 5dbf 2719 f8bf
00000240: dbcc f93e 5e0e e4bf 8b19 19c0 f9f5 b6be
00000250: 80d5 91be 9cc9 7a3f 31e9 363e 0d9e 0540
00000260: 2c2b 1f40 0bcf 34c0 c671 75be 00ae 23c0
00000270: 8635 3dc0 765e 373f 710c 4dc0 d61e 9ebf
00000280: f51e 2ebf ce88 893e f75c 5cc0 4b00 2840
00000290: 4f25 5440 d14e 753f cf94 36bd 4d70 18bf
000002a0: bca6 a8bf 7f5e 473f 0a5b 1c3f 4867 b63f
000002b0: 8125 e43f fc27 f33f c0d5 5abf 8f31 18bf
000002c0: 6647 95bf 5336 a6bf d3fd b93f e1cd cebf
000002d0: e39d d2bf 7dda 783f 6302 a23f a070 a43e
000002e0: f719 663d 3975 2cbe 1710 37bf 2c4a ec3f
000002f0: 7854 a03f 67e3 52bd 6e89 3f40 8ab5 373f
00000300: f6b5 b7bf c1d9 4d3e a75d 8e3f f247 3840
00000310: 771a fcbe f393 84c0 319e 85bd ee00 1cc0
00000320: e01c edbf 6ba7 1abf 3ef2 c8bf ec9b f4bf
00000330: 21d8 11c0 2670 a73f 469f c9bf adbf 21bf
00000340: 02e3 09c0 f128 c3bf e0b1 eebe cf3f f9be
00000350: 0e3e df3e a024 0440 625c acbf 5b7e e2bf
00000360: e9a1 98be 45dd 103e d60c 4e3f b192 d6bf
00000370: 291e 0cbf 4627 0a3f 445e 4f3f a935 9c3f
00000380: 0f23 7c3f 34a8 aebe f19f d6be b03e 0a40
00000390: 8130 35c0 f54e a5bf 5a2c 86bd 1984 0440
000003a0: 1d99 c93f 7b71 41c0 58b7 633f b24f f9bf
000003b0: 596a 2e40 2449 8dbd 3691 5dbf 4b5e 913f
000003c0: b0c5 8040 1b49 333e 5cba 223f 8897 b33f
000003d0: e82e c4be 8295 9c3f 8897 41be fcad 543f
000003e0: 46c6 343f 3597 17bf 65d3 37be 6005 5ebf
000003f0: 48c7 0fc0 72bd d33f 1ea2 c8bf ab22 113f
-1.7535865 -0.3315075 -0.5265735 -0.8043476 1.7936125 0.14389253 3.3020985 -0.33166522
0.36197305 -1.4341781 -0.36996114 -0.6791771 -1.1211731 -1.6513597 2.1371522 -1.324668
-2.1485708 -0.09525755 -1.7645806 -3.1456397 0.30535308 -0.2916155 -0.2431381 -0.7217925
-0.37340087 1.604698 2.015399 -1.3682146 -0.6096608 0.76726127 0.9590997 -1.1003432
-2.5653985 -0.10773151 1.4447851 -1.3524647 -3.113101 -1.867628 0.6899739 0.18403906
2.3518298 0.033709146 -0.2016005 2.945329 0.6511785 1.1524165 1.2984374 0.73780686
-2.274495 -2.509691 0.86477166 -2.1232514 2.8901646 3.8004622 -0.6612128 2.960362
0.3208978 0.09331191 0.27952838 -1.7449205 2.710308 -0.013169104 2.5537298 -0.8080568
1.7869208 1.1169779 1.572116 -0.3711662 1.1916331 2.443867 1.5508521 -2.1401021
2.2277215 -2.4834425 3.2601027 1.7079418 -0.3826233 -1.1299653 -1.3662251 -0.20861344
2.0071511 -1.4530499 1.002304 -1.351709 0.26551688 -1.6079903 0.90553945 -1.7206249
-1.9697027 -0.57928324 -1.1920027 2.0570834 1.0442783 -0.6228346 -1.0725691 -1.1768296
-0.78581756 -0.76028323 -3.002127 -1.7299256 -0.99377567 0.8135136 0.26080024 0.45020384
-0.87163115 -3.4215987 3.0663428 -4.1424813 2.8549492 -3.4616292 -2.1719158 -0.9726935
-0.09890012 0.64522105 -1.4009398 1.1969664 1.9220434 -4.0253673 0.6483665 -0.74489146
3.4140847 0.5134177 0.23456898 -0.7592058 1.0074213 1.0285882 -1.6526991 -0.368822
-1.9550259 0.23311278 0.46846285 2.148798 2.392563 -0.99251074 -3.4759922 0.9050606
-0.5572218 2.101566 1.2781396 -2.2627454 -3.3887594 -3.737125 -0.86614126 -1.9382676
0.48789105 -1.7816885 -2.392184 -0.35734537 -0.284832 0.9796388 0.17862393 2.0877717
2.48701 -2.825137 -0.23969182 -2.557495 -2.9563918 0.7162851 -3.2038844 -1.235316
-0.68015987 0.26862186 -3.4431741 2.625018 3.3147771 0.9582339 -0.04457551 -0.5954636
-1.3175883 0.77878565 0.61076415 1.4250269 1.7823945 1.8996577 -0.85482407 -0.5945062
-1.1662414 -1.2985328 1.4530586 -1.6156579 -1.6454433 0.97208387 1.2656978 0.32117176
0.056177106 -0.16841592 -0.71508926 1.8460135 1.2525778 -0.0514864 2.992763 0.7176138
-1.4352405 0.20102598 1.112233 2.8793912 -0.4923894 -4.14306 -0.06524313 -2.4375567
-1.8524437 -0.6041171 -1.5698926 -1.9110084 -2.2788165 1.30811 -1.5751731 -0.631831
-2.1544805 -1.5246869 -0.46620083 -0.48681495 0.4360203 2.0647354 -1.3465693 -1.7694811
-0.29811028 0.14146908 0.80488336 -1.6763517 -0.5473352 0.53966177 0.8100321 1.2203876
0.98490995 -0.34112704 -0.419189 2.1600761 -2.8310854 -1.2914721 -0.06551428 2.0705626
1.5749851 -3.0225513 0.88951635 -1.9477446 2.725241 -0.06898716 -0.865497 1.1356901
4.024132 0.17508356 0.6356561 1.4030619 -0.38317037 1.2233126 -0.18905461 0.8307798
0.7061504 -0.592151 -0.17951734 -0.8672695 -2.2465382 1.6542189 -1.5674474 0.56693524

bn1.running_var f4 [512]
00000000: 2a6d 1240 49a9 7040 30c2 3840 f8b7 2740
00000010: 6c00 dd40 020e c43f 0c15 0140 1a0d 9940
00000020: d956 e43f d9f2 7d40 9fd3 5d40 5ace 8840
00000030: 1647 2040 92be ac40 d93d c63f b274 1940
00000040: 3a1b 0940 a2bd 3440 e82d 4840 6451 2740
00000050: ef01 0e40 7478 2740 21ab 4640 bd8d 6240
00000060: 932e 8740 0421 b33f 86a7 5040 e50b 3e40
00000070: ceb9 1340 9f34 7d40 7f6d 3340 b14a 4e40
00000080: 20db 2340 87ac 0340 a44c 9440 9e38 8b40
00000090: 4256 5f40 5df0 5f40 3298 8840 3a5b 1a40
000000a0: d0a4 4440 34f5 0440 242f e13f 63d1 8a40
000000b0: c6f5 f13f a7ce 2240 2009 2b40 36eb b140
000000c0: 7ff2 3740 3ddb b43f 593f 8140 6365 9b40
000000d0: 4e7b 1f40 5bf4 3340 a9c9 0840 c871 1240
000000e0: cf6a 0040 c888 e43f 6b22 8b40 46f2 1a40
000000f0: 02c3 8a40 4af5 7c40 933c 3e40 5094 9540
00000100: 38ea 7b40 a446 383f 355b 5740 552d d83f
00000110: 9e13 5940 2cad 0240 0a93 0340 68cc 9640
00000120: e33c 8940 1af7 9140 c4a4 8e40 f55e 0840
00000130: 754b b740 dcc6 8240 0135 c340 252b 0a40
00000140: 9cf5 1f40 43f6 c540 9d63 fd3f 0cbb 2f40
00000150: c5c6 b340 250c 9540 acbe 3c40 e3cf 2840
00000160: 63ec 3f40 d297 0d40 c0b7 2340 bc59 f440
00000170: 65b5 6d40 e2ca ba40 f9fb 4840 103e 4040
00000180: c519 2640 23ed b93f e1e9 9c40 2fe2 7a40
00000190: 7f14 843f 41f5 3640 6e41 ed3f 5f0c f23f
000001a0: 6874 3b40 6a0b 3640 c6bb 5d40 4f86 fb3f
000001b0: aed0 3b40 2c7f 5540 fc90 7340 ddf1 823f
000001c0: 2f0c d63f 843e e23f e9bd 9140 ccdc d13f
000001d0: e244 db40 1f4a 7640 2d91 1d40 7409 8040
000001e0: 3732 1e40 a101 893f 0ed6 1440 d6f7 3640
000001f0: ec71 eb3f 9c82 e33f 4837 5940 eb14 1440
00000200: f13f 5040 f157 aa3f 0c1b 5940 fea6 2540
00000210: 81b2 ee3f 7783 3840 70fd a640 2cfc 8040
00000220: 15f5 1640 4db4 a540 076c af3f f2db 4c40
00000230: d8ff 2f40 a6b4 7340 d6cb a83f e63d 3840
00000240: 4b41 0640 daa3 8040 18a1 6240 e414 6940
00000250: 64cb 5840 0d97 dd3f 3174 7140 68dd ef3f
00000260: b6b4 0a40 7783 5640 1e8a ac3f d68e 0f40
00000270: 1697 9340 9a0a 8540 ca70 8440 02fb 7440
00000280: fa38 4340 4804 3240 050e 3e40 426e 7240
00000290: f116 8740 c5ea 9040 ee7a 1c40 6e1f 9a3f
000002a0: 7163 6440 e173 d340 daa3 4940 205c 7240
000002b0: 49bb 2940 7b97 5e40 9674 2540 0e93 8340
000002c0: 8f2b 0440 cee4 7c3f a39d c140 0701 0b40
000002d0: 9759 a540 6066 6440 b8ac 883f 1fb0 0d40
000002e0: 1817 0a40 4c18 8340 ec3d 9840 5ab0 8640
000002f0: 77d5 a43f 470b fa3e 502a 7c40 f08e a840
00000300: fccf 9d3f e46a 4b40 0914 1d40 aa2c 9440
00000310: 3b9d 2e40 f238 5c40 57f7 1040 520b e33f
00000320: f880 4b40 be78 4a40 8988 833f 7139 1e40
00000330: 099e b740 b8f7 2440 50b9 7640 e08d c540
00000340: 5420 c73f 409c eb3f 28a1 af40 8881 523f
00000350: 2b55 6b40 2fac d53f 2588 c240 2aae 9140
00000360: db88 1940 199a cf3f 6956 3740 d83e 5b40
00000370: ba66 5c40 f598 7840 edeb 1740 a2e8 0740
00000380: 560a 3540 3d51 e03f 5023 7640 aef8 6f40
00000390: 843c 0540 ca03 2d3f 1901 9c3f 02bb 0d40
000003a0: 8a9f 8540 392d 8e40 8f6d 3540 e631 8940
000003b0: 8f70 1a40 9b2e e03f e070 a33f b259 af3f
000003c0: e7af 6b40 613b 2a40 04c4 8540 ca9f 0440
000003d0: a60e 0d40 8437 1c40 d0f4 4840 dee4 1140
000003e0: a467 1440 5488 7f40 02f9 f23f d3ca a840
000003f0: cc39 8040 96ef 1440 e1b7 b140 ee57 5d40
2.2879128 3.7603323 2.8868523 2.6206036 6.9063015 1.5316775 2.0169096 4.7828493
1.7839004 3.9679472 3.4660413 4.2751894 2.5043387 5.398263 1.5487624 2.3977475
2.1422868 2.8240743 3.127802 2.6143427 2.218868 2.6167269 3.1041949 3.539901
4.2244353 1.399445 3.2602248 2.969476 2.3082156 3.9563367 2.803558 3.2233088
2.5602493 2.0574052 4.6343555 4.3506613 3.4896398 3.4990456 4.2685785 2.411818
3.0725594 2.077466 1.7592511 4.33806 1.8903129 2.543863 2.672432 5.5599623
2.8741758 1.4129406 4.038983 4.8561263 2.491901 2.8117893 2.1373084 2.2881947
2.006519 1.7854242 4.3479514 2.4210372 4.3363047 3.9524713 2.9724472 4.6743546
3.9361706 0.7198279 3.3649418 1.6888834 3.3918223 2.0418196 2.0558496 4.712452
4.2886825 4.561414 4.457613 2.1307957 5.727961 4.086775 6.10022 2.1588833
2.4993658 6.1863112 1.9796025 2.7457914 5.618014 4.6577325 2.9491377 2.6376884
2.998803 2.2123914 2.5580902 7.635954 3.7141964 5.837266 3.1403792 3.003788
2.5953228 1.4525493 4.9035497 3.9200552 1.0318755 2.858719 1.8535593 1.8910025
2.9289799 2.8444467 3.4645858 1.9650363 2.9346118 3.335887 3.8057241 1.0230061
1.6722468 1.7675328 4.5544324 1.6395507 6.8521585 3.848274 2.4619858 4.001154
2.4718149 1.0703622 2.3255649 2.8588767 1.8394141 1.7774234 3.393999 2.3137767
3.2539027 1.3308088 3.3922758 2.5883174 1.8648225 2.883024 5.218437 4.0307827
2.3587086 5.1782594 1.3704842 3.2009244 2.7499905 3.807901 1.3187206 2.878778
2.0977352 4.0200014 3.5410824 3.6419 3.387414 1.7311722 3.7727168 1.8739443
2.1672797 3.351774 1.347965 2.243093 4.612193 4.157544 4.138768 3.8278203
3.0503526 2.7815113 2.9696057 3.7879796 4.2215505 4.5286584 2.445003 1.2040842
3.5685694 6.6078954 3.1506257 3.7868729 2.652056 3.4779956 2.5852408 4.111701
2.0651586 0.9878663 6.050493 2.1719377 5.1671863 3.5687485 1.067771 2.2138746
2.1576595 4.096716 4.757559 4.2090273 1.2877644 0.4883673 3.9400826 5.2674484
1.2329097 3.178399 2.4543478 4.630452 2.7283466 3.4409757 2.2650964 1.773783
3.1797466 3.1636195 1.0276042 2.472256 5.7380414 2.5776196 3.8550606 6.1735687
1.5556741 1.8407059 5.4884224 0.822289 3.6770732 1.6693171 6.079119 4.5525103
2.398978 1.6218902 2.864649 3.4257107 3.44377 3.8843358 2.3737748 2.1235738
2.8287559 1.7524792 3.8459053 3.7495532 2.0818186 0.67583907 1.2187835 2.214539
4.175725 4.4430203 2.834812 4.287341 2.41312 1.7514223 1.2768822 1.3699248
3.6826112 2.6598742 4.1801777 2.0722528 2.204019 2.4408884 3.1399422 2.279594
2.3188257 3.9926958 1.8982241 5.274759 4.0070553 2.3271232 5.553696 3.4584918

fc2.weight f4 [256, 512]
00000000: 38a6 aabb 4d44 b23c 8828 213d 8f67 333b
00000010: 3e55 c63c 84d3 8e3c f609 273c 4915 d5bb
00000020: 7f89 2e3d bd15 4bbd 050b 863b 8a4f a3bc
00000030: 9d7c 22bd 3f64 1bbd bfea 64bc 81ca c9bc
00000040: b102 2dbc d15c d33c 411d 343c a145 1abd
00000050: b839 e3bc fd3b 953c 635d 20bd 3ccf ebbc
00000060: 4d3c 973b 0600 8fbc 340f 553d 4a29 84bc
00000070: 10de 923c 6d84 87bc cda3 ecbc be39 79bc
00000080: 5a81 29bd 66a9 a0bc 54f9 91bb 61d4 bd3c
00000090: 617a 52bd 3ff9 033d 094c f83c 811f 0e3d
000000a0: a879 30bc 3ef3 173d 61b9 153b d452 0d3d
000000b0: 6686 313d 8e52 0d3a 29cb 23bd e721 763b
000000c0: 4aed 38bc 5649 16bd 97e6 33bd 5ac3 1a3d
000000d0: cbe0 453c 8aa4 8fbc cc10 eabc e236 f93c
000000e0: 24fe 29bd 1f3a 74bc c5d7 2f3d 52d1 e33c
000000f0: 81c1 dd3b d4bc 67bc 5c1d a4bc 9b4c b93c
00000100: 09fe dbbc 57f1 27bc 7dc2 793a 4803 8d3c
00000110: 08ca 3a3c 63ce 33bc c1f7 033d 3b89 4fbc
00000120: 2564 b4bc cd07 87bc 98a7 843c ac1c 483d
00000130: 65b1 2fbc 8c86 01bc 9bec f3bb a486 fd39
00000140: eab8 f83c 8563 8b3c d00d 4ebd 5842 80bc
00000150: c008 3ebd 520d a53c 2422 b9bb c971 2d3d
00000160: e7a2 35bd f9df 183d 080d eebc e7f5 243d
00000170: 6cae d03c dd67 853c 5956 323c 9b75 28bd
00000180: a3cc 1c3d 83c3 06bd 39a6 f9bc 0c63 183d
00000190: 6baf 203d 6a75 c3ba 6514 1c3b 758a 043d
000001a0: f5c5 c93c 2bf5 133d cbdd e4bc 7640 d53c
000001b0: 06f2 25ba 1644 82bc 5f1b c5bc 5430 90bc
000001c0: 1f4f 2e3c 1b45 b4bb 895c 9dbc 6a2a 90bb
000001d0: 994a 11bd 1c5e 8f3c c435 cbbc 3d0f a9bc
000001e0: 304a 433d f5f1 4cbd 430c 2bbd c3bf da3c
000001f0: 71c4 8a3c a3ef 0b3d 3843 353d f31c 85bc
00000200: b1a2 96bc d0a9 2dbd 7725 c93c 7ab8 d93c
00000210: 162e 453b 4acb 533c 3ae9 46bd bb02 33bd
00000220: 9226 093d e3a5 0dbd 16f0 0d3c c25a af3c
00000230: b9f0 f73c 3c3d 56bd 11c0 a3bb 91e8 13bd
00000240: d540 12bd c012 bd3c e037 9bba f1bd 7b3c
00000250: 820e 2bbd 5cb2 0e3c 64fd 07bd 49b6 0abc
00000260: 0fd9 46bc 2821 96bc dd8b 82bc cf28 ec3c
00000270: 8a44 1e3d 0f97 203d 52c5 933b c3f8 2cbd
00000280: 4e19 ecbc 2b83 923b cd2d 433d ec66 023d
00000290: a347 b63b b675 03bd 1eb4 87bc 1dc2 47bc
000002a0: 4e4b 36bb 1fc8 76bc 99f6 3c3d edbd 2dbd
000002b0: 6563 2a3d 6f34 c538 c0f5 17bd d796 8abc
000002c0: 673f 7e3c 946b 19bd 500c 55bc 9121 b4bc
000002d0: 7956 8fbc 1d19 ee3c 5d87 303d 19f9 c73c
000002e0: 5cd8 023d ded5 dcba 2805 ca3c 1e0d 933c
000002f0: ab6c b6bc 08a4 3abc cc8e 4dbd 033e 53bb
00000300: 3031 133d 49de fbba a20a 3a3a 01a0 0b3d
00000310: b7ec f7bc 30ce 463a 00c5 5b3c b2ca 0bbd
00000320: b643 edbc 1b0c 673c bca9 163d cd0c d73b
00000330: 47b6 36bd 599c 9fbc c2fe ebbc a35a 06bd
00000340: 6e4d 013d fca1 a7bc c3cb 2ebd ee58 843c
00000350: f5f3 e03c 8398 22bb bdff 9abc b4e4 b43c
00000360: a6c8 ae3c 304f d4bc f7fb f93c 2096 07bd
00000370: 8ccb 4b3c afca 58bc e58d febb 1c52 6b3c
00000380: d69b d6bc 11ff 553c 26a7 093c 29b6 d6bc
00000390: 007f 233d 3d9d 0bbd 6f5a bfbc 04e3 fc3b
000003a0: 2feb c0bc 7046 0e3d f6db 36bd 68fc 30bd
000003b0: 64a7 743c 0f88 c43c 80ef 2dbd 6edf 9a3c
000003c0: 229f 603c 45a9 fcbb 50f9 5bbd 21f2 0a3d
000003d0: dafa f43c 7e96 183d eeff 14bd 2e11 223d
000003e0: 339a 2d3c 05c3 05bc b593 c0bc 7011 023c
000003f0: 29b4 203d 0938 4a3d c22a c23c 6b8b cc3b
-0.005207803 0.021761084 0.039345294 0.0027374958 0.024210569 0.017434843 0.010195246 -0.0065027815
0.042611595 -0.049581278 0.004090669 -0.019935388 -0.03966962 -0.0379374 -0.013971983 -0.024632694
-0.010559724 0.025801094 0.010993303 -0.03766406 -0.027737483 0.018217081 -0.03915156 -0.02878534
0.0046153427 -0.017456066 0.052016452 -0.01613297 0.017928153 -0.016542638 -0.0288867 -0.015211521
-0.041383125 -0.019612025 -0.004454771 0.02317256 -0.05138624 0.03222012 0.030309694 0.034698013
-0.010771193 0.03709721 0.002284609 0.03450282 0.043341063 0.0005391025 -0.03998867 0.0037556828
-0.011287043 -0.036691032 -0.04392108 0.037783958 0.012077521 -0.017534513 -0.028572462 0.030421678
-0.041502133 -0.014906435 0.042930383 0.027809773 0.006767452 -0.014144141 -0.02003353 0.022619536
-0.026854532 -0.010250411 0.0009527577 0.017213479 0.011400707 -0.010974499 0.0322187 -0.012666996
-0.022020409 -0.016483212 0.016193196 0.04885547 -0.0107234465 -0.007905614 -0.007443977 0.00048356235
0.030361611 0.017015228 -0.05030614 -0.015656635 -0.046395063 0.020147953 -0.005649822 0.042344842
-0.04434481 0.037322972 -0.029058948 0.040273573 0.025473796 0.016284877 0.010884845 -0.041127782
0.038281094 -0.0329013 -0.030474769 0.037203833 0.03922979 -0.0014912311 0.0023815867 0.032358605
0.024630526 0.036122482 -0.02793779 0.026031714 -0.0006330315 -0.015901607 -0.024060903 -0.01760117
0.010638981 -0.005501402 -0.019209163 -0.0043995874 -0.035471532 0.01750093 -0.02480591 -0.020637149
0.047678173 -0.050035436 -0.04175974 0.026702767 0.016939374 0.034164082 0.044253558 -0.016249156
-0.018388124 -0.042398274 0.024553997 0.026577223 0.0030087284 0.012926886 -0.048562266 -0.043703776
0.03348405 -0.03458203 0.008663198 0.021405581 0.030266153 -0.05230449 -0.0049972613 -0.036110464
-0.03570636 0.02308023 -0.0011842214 0.01536511 -0.041761883 0.008709516 -0.033200637 -0.008466312
-0.012136712 -0.018326357 -0.015935833 0.028828053 0.038639583 0.03920656 0.0045096064 -0.042229425
-0.02882066 0.004471203 0.0476511 0.031836435 0.005562739 -0.03209468 -0.016565379 -0.012192276
-0.0027815881 -0.015062361 0.04613361 -0.042417455 0.041598696 9.4034585e-05 -0.0370996 -0.01691763
0.015518046 -0.03745611 -0.013003424 -0.021988662 -0.017497288 0.02906471 0.043097842 0.024410771
0.031944618 -0.0016848405 0.024660662 0.01795059 -0.022268614 -0.011391647 -0.05018501 -0.0032233007
0.03593558 -0.0019216026 0.00070969213 0.03408814 -0.030264242 0.0007583825 0.013413668 -0.034128852
-0.028962951 0.014102007 0.036782965 0.0065628053 -0.044607427 -0.019483732 -0.028808001 -0.03280128
0.031567983 -0.020462982 -0.04267479 0.016155686 0.027460078 -0.0024810142 -0.018920774 0.02208171
0.021335911 -0.025916666 0.030515654 -0.033102155 0.012438666 -0.013231917 -0.00776838 0.014362838
-0.026197355 0.013061301 0.008401668 -0.026209908 0.03991604 -0.0340855 -0.023358552 0.007717492
-0.023549644 0.034735143 -0.044643365 -0.043209463 0.014932487 0.023990659 -0.042464733 0.018905368
0.013709815 -0.007710608 -0.05370456 0.03392232 0.029904772 0.037252896 -0.036376886 0.039567165
0.010595846 -0.008164172 -0.023507932 0.007938728 0.039234314 0.049369846 0.02370203 0.006242206

fc2.bias f4 [256]
00000000: cfc7 4fbb 9b41 ba3c 285e 36bd 402d 11bd
00000010: c4e2 153d 33f4 213c ce54 00bd a428 73bc
00000020: 5f0b 423c 08bb 253d 0bfd 0a3d 8dbf 1dbd
00000030: 6e47 a9bc 5d14 4e3b 8860 04bd c217 d03c
00000040: 0760 ccbc 3789 ac3c 106e c83c 847a b83b
00000050: 871f 17bb 7a97 fa3c 3cde 133c fa4b 0e3d
00000060: e33d d33c 167d 1c3d a30a 283d 927c 7e3b
00000070: 17d5 dc3c 87de 11bc c152 e9bb d977 b53b
00000080: ee0a 323c a426 aebc e062 cb3c 71df 92bc
00000090: 4f45 f7bc b24a 94bc 1e7f 5abc 04e5 f2bb
000000a0: 95f7 00bc 0a41 d8bc f4ba 503c e378 003d
000000b0: 0295 623c 4e00 12bd 6f4e 0bbc a65b 63bc
000000c0: 8d5c eb3c 05ad ed3c fd45 c1bb 7fc1 1f3d
000000d0: 17c1 fdbb 1a6d 08bd 9a4d 2fbd 7e26 cdbc
000000e0: 8a9a ddbc 4bcf 393b 957f 15bd 641b 5bba
000000f0: 39ca 01bb e1d9 083d 151f d23b 3b39 ad3c
00000100: 36d1 c2ba c5ae fd3c 9019 31bd 40ce b43c
00000110: f7e1 adbc 74d6 09bd 2056 56bc bd5e ed3c
00000120: e67b 26bd 15c6 d33c 2f4c a5bc 048c 24bb
00000130: 4b0d e1bb 1d19 063d 47b9 29bd 2de3 9a3c
00000140: 5386 fabc c9a1 be3c aec4 b7bc 8cef a5bc
00000150: da6f 2ebd f030 98bc a315 64bc f2bc c53a
00000160: eedd 0bbd 6ce4 d83c 8667 d5bb 1cb4 f73c
00000170: 2f53 813b f747 8fbc 04e7 c03c 5152 7dbc
00000180: 3bab 5f3c d3cd ce3c bfb1 19bd ff7a 0f3d
00000190: 8089 36bc 28b4 793c 1600 46bc 5ef1 573c
000001a0: de4e dc3b fb7d 093d 2125 dabc e835 493c
000001b0: 76cd b23c 0c71 ae3c 2579 863c 2bb7 0bbd
000001c0: ff53 9abc c1c8 07bd 2fc6 1f3d 0770 1a3c
000001d0: 3535 df3b 8ca6 36bc f14a 373b 7655 053d
000001e0: 8005 1c3d d729 18bc 55f0 8fb9 cd3e 11bd
000001f0: b427 c1bb 2c00 2fbd d0ae 8e3b e874 fdbc
00000200: 4e57 de3c cd65 2c3c 92e9 b33c 2f3f 03bd
00000210: 0896 f4bc eaf6 b53c 8021 33ba b903 f03c
00000220: 45c6 3f3c b7c7 493a 27b5 f63c 2332 28bd
00000230: 6828 50bc 33ce 15bc db92 fcbb b269 913c
00000240: 4d98 1ebc 4546 043c 657e a03c cbf0 85b9
00000250: 2313 20bd c873 59bc 4843 f6bc 420d 09bd
00000260: f267 09bd 27c2 a53c 4b91 14bb 47f1 26bd
00000270: d139 903c cffb d33c d19f fcbb c115 aabc
00000280: b8bd 633c f40d f7bc 2584 0e3d 4b4f 673c
00000290: f678 3ebc 5fbd ddbb fdab 14bb b583 2f3d
000002a0: 27bb e9bc 91c8 8fbc 88d6 16bd 7a21 debc
000002b0: cd85 2d3c 8640 123d 29b5 dd3b 12ed 903c
000002c0: c0b6 b5bb be9a 2fbc 0e37 f7bc 5695 0cbd
000002d0: 86be 213d e3ee 2e3d ca9e 093d 78f6 59bc
000002e0: 6e1b 3ebc 6237 a93c 23ac 15bc 4e69 233b
000002f0: e44c 603c f098 b83c 06dd 7bbc 6457 6a3b
00000300: 2b95 293d 3d56 07bd f071 9ebc 37b5 2d3d
00000310: be5b 7abc 7832 edbc 5f64 773c d7a0 0cbd
00000320: 410e 8ebb 7506 e53b ad91 2abd 38a5 c23b
00000330: a686 18bc e980 b73c 6b68 f83c 616b 203d
00000340: 197d 94bc 78e5 a6bc 60aa 933c 4441 de3c
00000350: ad1a 1dbd 7ba7 e6bc fed4 86bc 89ed bfbc
00000360: eb69 2abb ffa1 d13a 6ea4 f13c dc33 1ebb
00000370: 00af d53c 4fd6 7b3c 6eb8 a63c 8e2c 20bd
00000380: d541 f7ba 36a6 4ebc cf6f 98bb 9b5f fe3c
00000390: 6d92 a6bc 2a22 2e3d 0b49 2c3d 3706 ea3c
000003a0: c30d 983c fba4 a839 12a6 49bb e6f1 bfbc
000003b0: 44f1 a63a 6e7c 7c3c 8920 adbc dfdf f03c
000003c0: 4e51 833c e0bf 0cbd 5818 c73b e2ef 31bd
000003d0: 9c24 563c 17c7 c4bc 3cab 5c3c 4d74 10bd
000003e0: 6797 8d3b 5488 103d 9b6c 29bd c784 1cbd
000003f0: fe6c 32bd 8883 e7bc cc12 b43c 7062 1dbd
-0.0031704789 0.022736361 -0.04452339 -0.035443544 0.036593214 0.009884882 -0.031330876 -0.014841232
0.011843531 0.04046157 0.033932727 -0.038512755 -0.020663943 0.0031445243 -0.032318622 0.025401954
-0.024948133 0.021061523 0.024466544 0.0056298394 -0.0023059563 0.030589808 0.009025153 0.034740426
0.025786346 0.03820523 0.04102577 0.0038831574 0.026957078 -0.008903152 -0.0071204607 0.0055379686
0.010866864 -0.02125866 0.02482742 -0.01792881 -0.030184416 -0.018102024 -0.013335971 -0.0074125547
-0.007871528 -0.0263982 0.012739886 0.031365287 0.013829472 -0.03564482 -0.008502587 -0.013876831
0.028730655 0.029013166 -0.005898236 0.03900289 -0.0077439654 -0.033307172 -0.042798616 -0.025042769
-0.027051229 0.0028352316 -0.036498625 -0.00083582685 -0.0019804372 0.03341091 0.0064123967 0.021145454
-0.0014863375 0.030967126 -0.04323727 0.022071004 -0.021225912 -0.033651784 -0.013082057 0.028975839
-0.040645503 0.025851289 -0.020177929 -0.002510787 -0.0068680397 0.032738794 -0.04143646 0.018907154
-0.030581629 0.023270505 -0.022432651 -0.020255826 -0.04258714 -0.018578023 -0.013921174 0.0015086217
-0.034147196 0.026476108 -0.006512585 0.03023725 0.003946684 -0.01749037 0.023547657 -0.01546152
0.013651664 0.025244629 -0.037523028 0.035029408 -0.011141181 0.0152407065 -0.012084981 0.013180105
0.006723269 0.03356741 -0.026629033 0.012280919 0.021826487 0.02129414 0.016415188 -0.03411023
-0.01883888 -0.03315044 0.039007362 0.009426123 0.0068117627 -0.011148106 0.0027968253 0.032552205
0.038091183 -0.009287319 -0.00027454147 -0.035460282 -0.0058946256 -0.042724773 0.0043543354 -0.030939534
0.02714124 0.010522318 0.021961961 -0.03204268 -0.029856697 0.022212464 -0.00068333 0.02929865
0.011704986 0.00076973013 0.030115677 -0.04106344 -0.012704946 -0.0091434 -0.007707936 0.017750595
-0.009679866 0.008073394 0.01959152 -0.00025547142 -0.03908075 -0.013272233 -0.03006138 -0.03345991
-0.033546396 0.02023418 -0.002266961 -0.040757444 0.017605694 0.025876908 -0.0077094813 -0.020762326
0.013900213 -0.03015802 0.03479399 0.014118026 -0.011625519 -0.0067669596 -0.002268552 0.042850215
-0.028531624 -0.017551692 -0.036825687 -0.027115572 0.010590983 0.035706066 0.0067659807 0.017691169
-0.005545467 -0.010718046 -0.03017762 -0.034322105 0.039488338 0.04270829 0.0335987 -0.013303392
-0.011603219 0.020656291 -0.009135279 0.0024934593 0.013690207 0.022533864 -0.01537252 0.0035757655
0.041402023 -0.033041228 -0.019341439 0.042409148 -0.015280662 -0.02895473 0.015099614 -0.034333076
-0.0043351953 0.006989295 -0.041642834 0.0059401058 -0.009309446 0.022400336 0.030323228 0.039164905
-0.018126057 -0.020373091 0.018025577 0.02713073 -0.038355518 -0.028156033 -0.016458984 -0.023428695
-0.0026003073 0.0015993713 0.029497351 -0.0024139797 0.026084423 0.015370919 0.020351615 -0.03910499
-0.0018864224 -0.01261287 -0.0046520005 0.031051448 -0.020333493 0.04251305 0.042061847 0.028567417
0.01856125 0.00032166377 -0.0030769152 -0.023430776 0.0012736698 0.015410526 -0.021133678 0.029403625
0.01602998 -0.034362674 0.0060759 -0.04344166 0.013070252 -0.024020715 0.01346856 -0.035267163
0.004321027 0.035286263 -0.04136334 -0.038212564 -0.043560974 -0.028260961 0.02198162 -0.038423955
